flat_feature_models/saved/best_model.pt (torch, 122082 bytes, 41 tensors)

fc1.weight f4 [32, 204]
000000 db e9 2e 3e 4b 64 13 be 23 73 10 be ba f4 7e bf
       0.17081396 -0.14393727 -0.14106421 -0.99592173
000010 10 d7 ca bd 55 46 27 be c8 df 99 bd c4 1c c3 bd
       -0.09904301 -0.16335423 -0.07513386 -0.09526971
000020 06 83 60 bd c4 c8 0f bc 16 87 bf bd 2f 19 49 bc
       -0.054812454 -0.008775894 -0.093519375 -0.012274071
000030 62 91 b6 bd 80 65 5f bd 8e 56 32 3d b0 9c 68 bd
       -0.08914448 -0.054540157 0.043539576 -0.056790054
000040 13 3e 44 3d 60 f7 98 bd 00 b5 b8 bb d5 7f 51 bd
       0.04791076 -0.07469058 -0.0056368113 -0.0511473
000050 ab cd af 3c a5 30 1b bc e4 b5 d3 bc af 2b e5 3b
       0.021460375 -0.009472047 -0.025843568 0.006993733
000060 aa 7f 77 bc a4 6d e6 bc cd c0 9b bc 18 0d 9f 3c
       -0.015106121 -0.028128453 -0.019012833 0.019415423
000070 14 0f 7d bd 8e 01 1e bd 58 b2 12 bd 4e 0a 08 bd
       -0.061781958 -0.0385757 -0.035814613 -0.033212952
000080 17 29 f0 bc 05 de 0a bc 4f c9 8c bd f9 d4 84 bd
       -0.029316468 -0.008475785 -0.06874334 -0.06485934
000090 66 22 8f bd 3a 1e 39 bd 25 ce 53 bd be 48 bd bc
       -0.06988983 -0.045194842 -0.051710267 -0.023105975
0000a0 dc 7a 26 bd 08 45 29 bd 8e 6c 9a 3a 06 46 17 3c
       -0.04064451 -0.0413256 0.0011781619 0.0092330035
0000b0 f5 fe cc bd 45 77 7d bd 85 50 3b bd 2d af ba bd
       -0.10009567 -0.061881322 -0.045731086 -0.091154434
0000c0 f3 4c 4f bc 9d 82 4d bd 0e 81 33 bc e5 5b c9 bd
       -0.0126526235 -0.05017339 -0.010956062 -0.098319806
0000d0 33 8b 90 bb 35 eb d6 bc 28 ba ac bd 27 18 15 bd
       -0.004411125 -0.026235202 -0.08433944 -0.036399987
0000e0 f0 c7 fe bd 31 7f c7 bd 4b ca 05 be 34 73 c6 bd
       -0.12440479 -0.09741057 -0.1306545 -0.09689942
0000f0 b1 49 93 bd a6 75 6d bd ec be cf bd ad 3c 50 bd
       -0.0719179 -0.057973526 -0.10143837 -0.050839115
000100 75 f9 a5 bd 41 ea 02 bd d5 47 e3 3b 8d 40 7e bd
       -0.08104221 -0.031961683 0.0069360533 -0.06207328
000110 d1 c6 f0 38 f5 39 0a bc ab 74 8c bd a9 96 6f bc
       0.00011481124 -0.00843667 -0.0685819 -0.0146233225
000120 aa 9f 8d bd f3 fa 34 bd 9c 48 d5 bd f0 19 db 3c
       -0.06915219 -0.044184636 -0.1041424 0.026745766
000130 00 6b 23 bd 71 1f 55 bc 69 90 d0 bc c8 dc 67 bd
       -0.039896965 -0.0130079845 -0.025459485 -0.056607038
000140 ce d1 30 bd 54 86 29 bd cc ba 2e bd f0 3c 17 bd
       -0.043168835 -0.04138787 -0.042658612 -0.03692335
000150 9c c0 c3 bd de 1f 58 bd 9b 68 0a 3d 36 bb 87 bd
       -0.09558222 -0.052764766 0.033791166 -0.066275045
000160 22 73 98 bc a9 f4 8e bd 4e ec 1c bd 61 72 b5 bd
       -0.018609587 -0.06980259 -0.038311295 -0.08859707
000170 f0 fa 9b bc fd 51 79 bc c3 e3 a0 bd 4d 7e 49 bd
       -0.019040555 -0.015217301 -0.07855942 -0.049192715
000180 1e 2f c2 3c 05 d4 00 bd 78 4d 0a 3c ae 81 c4 bd
       0.023704108 -0.031452198 0.008441322 -0.09595047
000190 69 56 4c bd 9e 55 01 be b1 97 4a be 2a a8 3c be
       -0.049887095 -0.12630317 -0.19784428 -0.18423524
0001a0 31 35 e3 3d f3 40 e9 3d c2 09 a4 3d ca 01 28 3d
       0.1109413 0.11389341 0.08009674 0.04101733
0001b0 8b 7a b0 3d 8a 61 06 bc 9d 38 e5 3d 6d ce 4d 3c
       0.08617123 -0.008201966 0.11192439 0.012561423
0001c0 13 3f d1 3d e8 bf 4b 3d af a1 90 3c fb a2 a6 3c
       0.102171086 0.049743563 0.017655222 0.020341387
0001d0 3e 49 a4 3c 56 05 48 3c 57 2c 82 3d a5 d7 02 3c
       0.020054456 0.012208303 0.063561134 0.007985984
0001e0 1d bd d3 3c 73 19 9b 3b 55 06 b0 3c 0a f1 87 3b
       0.025847012 0.0047332584 0.021487394 0.004148607
0001f0 52 79 c5 3c 12 f6 2d ba 26 8e a6 3c 6d ac 12 bc
       0.024105702 -0.00066360936 0.020331454 -0.008952242
000200 e9 44 78 3c f7 58 95 3d 61 5e 89 bc 1b a5 68 3d
       0.015153148 0.07292359 -0.016768636 0.05679808
000210 a8 e1 d0 3b a0 ce 85 3c 3e 35 89 3d c0 53 4e 3d
       0.0063745566 0.016333878 0.06699608 0.05037284
000220 70 6a 57 3d f6 87 e1 3c c6 18 55 3d 36 17 6e 3c
       0.05259174 0.027530652 0.05202558 0.014531901
000230 39 b9 54 3d d6 1b 1f 3c 82 e3 0f 3d 3e ec c7 bc
       0.051934455 0.009711226 0.035129078 -0.024404641
000240 b2 9d cf 3d e0 2e 10 3c 59 20 a6 3d ad e6 4e 3d
       0.101375 0.008800238 0.081116386 0.05051296
000250 cf 39 b1 3c 42 80 19 3d d4 61 0a 3c 9b 4c 8d 3d
       0.02163401 0.03747583 0.008446176 0.06899377
000260 6e c3 34 bc 29 76 83 3d 6c b8 7b 3c eb e8 ad 3d
       -0.011032922 0.06419022 0.015363794 0.08491691
000270 0e ec 16 3d e4 55 c6 3d d6 fc c2 3d 58 d7 81 3d
       0.036846213 0.09684351 0.09520881 0.06339902
000280 0b 02 6f 3d d0 20 3f 3d e7 4f 91 3d e5 68 68 3d
       0.058351558 0.04666215 0.07095318 0.05674066
000290 6a 8b 57 3d ec a9 3a 3d 03 d2 88 3b 3a a5 44 3d
       0.05262319 0.045572206 0.004175426 0.048009135
0002a0 38 b9 f3 3c 35 ca 15 bc 8b 04 ae 3d 85 d8 8a 3a
       0.029751405 -0.009142448 0.0849696 0.0010593092
0002b0 d5 94 23 3d 02 16 67 3d ea af 81 3d 54 a2 0d 3a
       0.03993686 0.056417473 0.06332381 0.0005402912
0002c0 87 7d 65 bb a3 ff 99 3c 9b 69 67 3a 91 49 b1 3c
       -0.0035017447 0.018798655 0.0008827687 0.021641525
0002d0 33 6a 82 3d 05 cc 1f 3c 28 7a 58 3d e9 fb 3b 3d
       0.06367912 0.009753232 0.052850872 0.045894537
0002e0 fe df 60 3d a2 32 85 3d 8a 6d 2a bc 38 f0 58 3c
       0.054901116 0.06503798 -0.010402093 0.013240866
0002f0 fb 09 51 3d fa b8 1f 3c 6f 47 2e 3d 85 f6 27 3d
       0.05103491 0.009748692 0.042548593 0.041006584
000300 73 08 8a 3c ab df f0 3c 11 1e 80 3d b9 29 31 3d
       0.016849732 0.029403528 0.06255735 0.04325268
000310 20 cc 08 bc 58 1c 07 bc 35 a3 79 3c 41 57 5b 3d
       -0.008349448 -0.008246504 0.0152366655 0.05355001
000320 98 60 3f 3d 4d 53 b0 3d aa 3f e8 3d 04 db 21 3e
       0.04672298 0.08609638 0.11340268 0.15806204
000330 46 9e 38 3f 9a 10 31 bf 65 88 b7 3d b7 50 5b 3e
       0.72116506 -0.69165957 0.08961562 0.21417509
000340 27 a2 1f bf 49 68 de be 09 96 bd be f4 44 83 be
       -0.623568 -0.43438938 -0.3702853 -0.25638545
000350 73 fd 17 be f5 d4 69 be c0 f2 fc bd 4b 9f 29 be
       -0.14842777 -0.22835143 -0.123509884 -0.16564672
000360 37 fb 75 be 3b 13 56 be 62 52 3b be a0 20 3d be
       -0.24021612 -0.20905773 -0.18293145 -0.18469477
000370 f1 90 5f be b0 fa 0f be 2a 75 68 be f2 d1 17 be
       -0.21832635 -0.14060473 -0.22700945 -0.14826182
000380 07 29 00 be 21 a8 d4 bd 95 1a 8c bd 39 92 59 bd
       -0.1251565 -0.103836305 -0.068410076 -0.053117964
000390 b6 ac c0 bd 54 34 ea b8 e0 28 92 bd 08 b6 ad bd
       -0.09407942 -0.000111677364 -0.071367025 -0.08481985
0003a0 a0 20 43 bd 68 db 2e bd c2 a6 2d bd 41 ca 0d 3d
       -0.047638535 -0.04268971 -0.04239536 0.034616712
0003b0 05 60 65 bc e7 59 81 bd ed 30 ef bc aa 3c ad bb
       -0.013999944 -0.06315976 -0.029198134 -0.0052867727
0003c0 33 fb a6 bd 06 74 0c 3d 65 6f 16 bd 39 14 ae 3c
       -0.08153381 0.034290336 -0.036727328 0.021249877
0003d0 bf 22 c0 bd 1a 27 26 bd 29 dc 0f bd 2f eb 92 bd
       -0.09381627 -0.040564634 -0.03512207 -0.07173764
0003e0 2b c7 9b 3b 20 bc fa 3c 40 8c c7 bd 30 31 6a 3d
       0.0047539673 0.030607283 -0.097435474 0.057175815
0003f0 75 49 50 bd f1 6e 73 3d 19 42 7b 3c 11 23 bb bc
       -0.050851304 0.059431974 0.015335583 -0.02284387

fc1.bias f4 [32]
000000 a6 84 a4 bf c6 78 e3 be e8 7f 9d 3f 47 ee 87 3e
       -1.2852981 -0.4442808 1.2304659 0.2654898
000010 af b3 b6 3e f1 bb c2 3d 8b 88 95 3f ab ad 56 be
       0.35683963 0.09508503 1.1682295 -0.20964687
000020 c2 e6 b7 3e 2d fa 24 3f b3 bd 18 3f a1 1f 89 3e
       0.35918242 0.6444424 0.5966446 0.26781943
000030 08 bc 99 3f af 23 82 bf 2b ba 40 bf 01 65 bf bf
       1.2010508 -1.016714 -0.7528407 -1.4952699
000040 ec 70 f1 3e 24 89 09 3f 67 6d 10 3d 7a ca 32 3f
       0.47156465 0.53724885 0.035260584 0.69840205
000050 8a bb 67 3f 48 8d 2c 3f b9 a5 8d 3f 47 92 1a 3f
       0.90520537 0.6740308 1.10662 0.6037945
000060 98 d0 fc be 7b d1 13 3f 07 d7 06 bf 5b 68 0d 3c
       -0.49377894 0.57741517 -0.52671856 0.008630837
000070 98 17 b6 bf a7 2a 9a bf c8 50 5d 3f 72 e1 88 3f
       -1.422595 -1.2044266 0.8645139 1.06938

sparse.shared_expert.0.weight f4 [32, 32]
000000 b8 d4 5b 3d 62 77 1f be 9b 87 b0 3c 13 bb 2c 3e
       0.05366966 -0.15572885 0.021549037 0.16868238
000010 bf ce 0a be 95 4e 7a bd ee d0 5e bc 27 71 1a be
       -0.1355543 -0.061110098 -0.013599617 -0.15082227
000020 8f 65 0c bd 42 13 22 3d 25 db 53 bd 4c 23 16 3c
       -0.03427654 0.039569147 -0.051722664 0.009163689
000030 18 0a 80 bd 03 2d b4 3b 92 fc a5 3d 7f ae e6 3d
       -0.06251925 0.00549853 0.081048146 0.11263751
000040 5f f9 b5 bd a5 b4 67 3d e9 87 ec bd 1f aa e5 3c
       -0.088854544 0.05656876 -0.1154936 0.028035222
000050 bb 5c c0 3d a6 a8 28 be af 32 e2 3d 78 f7 6d 3d
       0.09392687 -0.16470584 0.110448234 0.058097333
000060 60 61 41 3e 88 9f 02 be 47 d7 91 3c e7 2c f6 bd
       0.18884802 -0.12756169 0.017802848 -0.12020283
000070 e6 93 2a 3e 7d 58 12 bd 55 8f 12 3e 7f 9b 0c 3c
       0.16657981 -0.03572892 0.1431249 0.008581995
000080 3b b1 65 bf b9 59 2d be f0 4c 4a 3e 2c 73 85 3e
       -0.8972356 -0.16928758 0.19755912 0.26064432
000090 3a a4 5e 3d 1d cb 9d be 74 99 8e bd 97 19 25 bf
       0.054355837 -0.30819026 -0.069628626 -0.6449217
0000a0 48 2f 31 3e 59 22 ae be dd fa 9c bd 95 a8 0a 3e
       0.17303193 -0.3401058 -0.07665036 0.13540871
0000b0 db fa 1e 3e 15 3f 0d 3e e1 66 06 be 88 2b d3 bd
       0.15525381 0.13793595 -0.13125183 -0.10311037
0000c0 e0 26 a8 3d ac 67 e8 3d ba c9 4c bf f4 bf 67 be
       0.0821054 0.11347899 -0.7999531 -0.22631818
0000d0 0d 1a 2b bd ea d9 ac bd 68 53 e8 bc c3 03 5f bf
       -0.04177289 -0.08440001 -0.028360084 -0.87115115
0000e0 33 a9 22 3d 2f 4a 3b be eb 3b 98 3e 97 ca a3 be
       0.039712142 -0.18290018 0.29733214 -0.319905
0000f0 cc 34 28 3e 7f 1d 9f bd 7b c8 fb 3c 52 35 52 be
       0.1642639 -0.07769298 0.030735245 -0.20528153
000100 21 ad 6b bd cf c9 9a bc 3a 7d ba 3d b3 11 2d be
       -0.057538155 -0.018895058 0.09105916 -0.16901283
000110 b2 14 00 be d5 01 7b be d4 6f 81 be 46 a3 9c 3d
       -0.12507895 -0.24512418 -0.2528063 0.076483294
000120 d3 79 0d 3e 66 19 e7 bb c4 63 49 3b 3f 69 d5 3d
       0.13816004 -0.0070525883 0.003072963 0.10420465
000130 b1 11 94 bc 3c 63 f4 3d 62 82 97 bd f8 82 42 3d
       -0.018074842 0.1193299 -0.073979154 0.047488183
000140 18 31 1a be 5b ea 93 3c 97 69 78 be b4 dc f2 bd
       -0.1505779 0.018056085 -0.2425903 -0.11858502
000150 33 7f 6a 3d 06 fb d1 3c 09 03 cb bc 9b 17 c2 be
       0.057250213 0.025632393 -0.02478172 -0.37908635
000160 f4 3f cf 3d dd 33 69 be 6e 20 a6 3b bc 98 a4 bc
       0.1011962 -0.2277369 0.005069784 -0.02009236
000170 4e da db 3d af ac 7a bd 10 45 2e be 75 c9 8a bc
       0.10734998 -0.06119984 -0.17018533 -0.016941765
000180 a0 29 78 3d 35 79 c7 3b 75 e0 cd 3d 48 c0 6e be
       0.06058657 0.006087447 0.100525774 -0.23315537
000190 f0 bd 0c be 34 cd 46 3d 3d 88 41 be 2a 93 71 3e
       -0.1374433 0.04853554 -0.18899627 0.23591295
0001a0 3e 34 05 3e 52 c2 4b 3d 46 47 b5 bd 35 83 4f 3e
       0.1300821 0.049745865 -0.08851485 0.20264895
0001b0 89 6a 12 3e 8a 84 75 be 75 0a a0 bb b6 6c 8e be
       0.14298452 -0.23976341 -0.004884059 -0.27817315
0001c0 e3 60 21 3d 6e 6c e4 bc 72 ee 65 bd 96 93 cd 3d
       0.03939904 -0.027883735 -0.056135602 0.100379154
0001d0 eb 70 e4 3c 14 60 0d be c2 0b 92 3d 06 f2 2c be
       0.027885875 -0.13806182 0.07131149 -0.168892
0001e0 e3 cc d9 3c eb 7a a4 3d e5 45 bf 3d c1 6b e3 bc
       0.026586955 0.08031257 0.09339503 -0.027761342
0001f0 64 9d 2b be e9 d0 6b be 58 6c c5 3d dc 1e bd 3d
       -0.16759259 -0.23028912 0.096398056 0.092344016
000200 cd 99 a9 3d f9 28 7c 3d 8f bb 81 3d 92 d4 fc bd
       0.08281288 0.061562512 0.06334602 -0.12345232
000210 ac c5 6d bd 7c af 11 be d1 b6 a8 3c e8 e9 2b be
       -0.058049843 -0.14227098 0.020594986 -0.16788447
000220 0d ac 2b be 47 4b 19 be b6 b7 0f 3c 7e 8d ca bd
       -0.16764851 -0.14970122 0.008771827 -0.09890269
000230 f2 f3 04 3c e7 f9 59 3e f0 44 4d bb f7 db 1c 3e
       0.008114802 0.21286736 -0.0031321608 0.15318285
000240 74 11 62 3d 06 49 16 be a1 17 4c be a9 45 3a be
       0.055192426 -0.14676294 -0.19930889 -0.18190636
000250 06 02 19 bd af c9 09 3e 0a 5b 95 bc 10 fe 19 bd
       -0.037355445 0.13455842 -0.018231887 -0.03759581
000260 0b 78 cf bc a1 b5 87 3d ab 0b a8 bc 4a a1 7e 3c
       -0.025325796 0.0662644 -0.020513376 0.015541384
000270 3c f9 ff 3c 54 7a da 3d 28 42 de 3c 64 58 20 3d
       0.031246774 0.106678635 0.027131155 0.039146796
000280 34 a4 cc 3d 2a 59 e2 bd a4 8f 4a bd 52 b3 ff bc
       0.09992257 -0.11052163 -0.049453393 -0.031213436
000290 30 9a f3 bd 5c e2 bd bd 2f ae 23 3e 3c 3a 12 bc
       -0.11894643 -0.0927169 0.15984415 -0.008925017
0002a0 1d 2f 1e be e0 22 42 be 9a 80 55 3e 6c 49 ca bd
       -0.1544766 -0.18958616 0.20849839 -0.09877285
0002b0 44 bc 19 be 79 dd 18 3e 70 ca c6 bd 31 08 f0 3c
       -0.15013224 0.14928235 -0.09706581 0.029300781
0002c0 20 87 0c 3e a6 05 8a 3a 5e 0a 65 be 63 dc ae bd
       0.13723421 0.0010530248 -0.22367236 -0.08538129
0002d0 b6 8a 95 3d 9f 7b c0 bd 54 f0 1a 3e 74 9e 38 3e
       0.07301848 -0.09398579 0.1513074 0.18029195
0002e0 a3 69 93 3d 08 62 08 3e 41 2e d7 bd 70 35 c7 bd
       0.07197883 0.13318646 -0.10506869 -0.09726989
0002f0 90 ee 9a bc 78 17 c2 3d ec e9 05 3b cc 4d bc 3c
       -0.018912584 0.094771326 0.0020433618 0.022986315
000300 79 07 a3 bf af 60 bd 3d 83 5a e3 3c c1 ef b6 3e
       -1.2736655 0.092469566 0.02775312 0.35729793
000310 0b cc 8a 3d 4f 4b eb be ba 2d 0d bd c7 08 46 bf
       0.06777199 -0.45955893 -0.034467436 -0.77357143
000320 f1 cb a2 3e d0 27 5e be a1 e6 ad be ae 69 6c 3e
       0.3179622 -0.21694875 -0.33965018 0.23087189
000330 f8 f0 38 bd 6a fb 4c be 5c c8 bb 3d 69 5d 68 be
       -0.04515168 -0.20017782 0.09169075 -0.22691883
000340 7f b4 ec 3d 0d 8c 66 bd d4 c9 58 bf 24 11 80 bc
       0.115578644 -0.056285907 -0.84682965 -0.015633173
000350 41 83 b4 bb 9b dd ae 3d c8 a7 25 be f8 49 1b bf
       -0.0055088107 0.08538362 -0.16177285 -0.6065974
000360 b8 94 29 3e b0 53 2d bb 3f a2 a5 bd 63 62 4f bd
       0.16560638 -0.0026447587 -0.080875866 -0.05063094
000370 07 a3 c4 bd a9 f2 06 bd b1 c8 8c bb e0 35 0f be
       -0.096014075 -0.032946263 -0.004296385 -0.13985395
000380 ea 51 02 3e 1b 3b 5c 3c 92 24 bb bd 09 77 d5 bd
       0.1272656 0.013441826 -0.091378346 -0.10423095
000390 9b 90 97 bd 74 94 54 bc 8d 01 d7 bc f3 6d 59 be
       -0.07400628 -0.012974847 -0.026245857 -0.21233349
0003a0 a8 9a 1d 3e 58 b2 f4 bb 65 f2 a4 bb 35 a5 3a be
       0.15391028 -0.0074675493 -0.0050337785 -0.18227084
0003b0 ff 5a c1 bd b3 4d a0 3d b6 19 cf bd 35 a3 50 3e
       -0.09441184 0.0782732 -0.10112326 0.20374759
0003c0 0c 6a 00 3e 44 56 ed bd 89 6b 82 be 8c f7 6f bd
       0.12540454 -0.115887195 -0.25472668 -0.05858569
0003d0 46 54 14 bd e4 86 ee bd bc c5 1c 3e f3 a0 1b 3e
       -0.036213182 -0.11646822 0.15309805 0.15198116
0003e0 44 2b ca bd 3c 00 3a bd 5b 86 4b bc a5 2e 52 be
       -0.098715335 -0.04541038 -0.01242217 -0.20525606
0003f0 8a 77 41 be b3 ae 67 3e 86 15 7f bd d8 6a 0b 3d
       -0.18893257 0.22625236 -0.062276386 0.03403744

sparse.shared_expert.0.bias f4 [32]
000000 e3 46 0d be 5a fd 42 bd a6 a7 e7 3b df e1 0a 3e
       -0.13796572 -0.047604896 0.007069546 0.13562725
000010 d6 50 89 bd 38 93 5f bd c6 88 66 bd 19 10 4f be
       -0.06704871 -0.054583758 -0.05628278 -0.20220985
000020 5a 33 b3 3c 3f b9 26 bc 99 c0 97 3c f5 27 37 be
       0.021875072 -0.010176002 0.018524455 -0.17886336
000030 11 7b c3 3d e1 41 f8 bd 3e dd b4 3d 7b fe c0 3c
       0.095449574 -0.121219404 0.08831261 0.023558846
000040 78 33 cf 3d d7 63 5c 3d 82 0e 39 be d1 b1 44 3e
       0.10117239 0.053806152 -0.1807194 0.19208457
000050 5a c8 fa 3d d2 a0 d9 3a 54 db 78 bd 4b 8a 58 be
       0.12245245 0.0016603714 -0.060756043 -0.21146505
000060 fb 03 bd 3d 85 f1 e2 3d ef 42 c4 bd 67 25 d9 bd
       0.09229275 0.110812224 -0.09583079 -0.10602837
000070 e3 f9 d2 bc a4 9a 2e bd 43 61 bf 3c 69 fe b7 3d
       -0.02575392 -0.042627946 0.023361808 0.08984072

sparse.routing_experts.0.layers.0.0.weight f4 [32, 32]
000000 5a d7 bc 3e d5 6a d3 bd 56 a3 97 3d 66 77 cc bd
       0.3688305 -0.10323111 0.07404201 -0.09983711
000010 32 0a 43 3d fc 4a 09 3e 67 39 a7 3d f2 76 ac 3d
       0.047617145 0.1340751 0.081652455 0.084211245
000020 36 7d 53 bd 63 b7 9a bd ef 22 53 be cc c2 0d be
       -0.051633082 -0.075545095 -0.20618795 -0.1384384
000030 c8 c7 d9 bd 80 89 cb 3d f9 04 ec bc 9f 28 99 bd
       -0.106338084 0.099383354 -0.028810965 -0.07478451
000040 22 6b 3e 3d 9e d4 d6 3c 11 c6 8c 3e 2e 16 47 be
       0.04648889 0.02622443 0.27494863 -0.19442055
000050 a4 8a ae bd 83 7b 9b 3d 8d ca 5d bb 82 3e 30 3e
       -0.08522537 0.07591917 -0.0033842654 0.17211345
000060 8f 89 60 3d 50 f7 5f 3e 9e 86 9d be 4a a3 3e 3e
       0.054818686 0.21871686 -0.30766767 0.18616977
000070 ae 40 a3 3d 21 d1 4d bd 46 ec c7 3c 37 a2 c1 bd
       0.07971321 -0.05024827 0.024404656 -0.09454768
000080 ec 6c fe be b2 27 3a bd 8b c8 eb 3d b7 85 b2 bd
       -0.49692476 -0.045448013 0.1151286 -0.0871691
000090 b8 fa 44 bd a7 4b 40 be 8e ca 7b bd 8b 99 b1 bd
       -0.048090667 -0.18778859 -0.061472468 -0.08671864
0000a0 b5 b5 1f 3e 34 c6 83 be d6 67 72 3d 35 64 8a 3e
       0.1559666 -0.25737154 0.059181057 0.27029577
0000b0 74 81 48 bd 08 a2 97 bd d8 59 7e be c6 78 91 3d
       -0.04895158 -0.07403952 -0.2483896 0.07103114
0000c0 7f 78 12 3c 7f 9e 32 be ee 89 2e be 54 57 36 3c
       0.008939861 -0.17443274 -0.17044804 0.011129219
0000d0 ad 68 9b bc 8d c8 46 be 1a cd 33 3e cd d5 14 bf
       -0.018970812 -0.19412442 0.17558709 -0.58138734
0000e0 ff f4 84 3c b1 a3 21 be 5c 31 4e bd ee d5 b0 bd
       0.016230104 -0.157851 -0.05034004 -0.08634554
0000f0 de d0 6b be 21 ab 25 be 62 df 9c 3d 18 ca 32 3e
       -0.23028895 -0.16178562 0.076597944 0.17459905
000100 ab fc 57 be fb a0 f8 3d c6 12 a6 3d 9e 1b 07 3e
       -0.21092479 0.121400796 0.081090495 0.13194129
000110 0d 6c f0 bd 8d b1 1d 3e 2a ed 11 3e 19 42 96 3c
       -0.11739359 0.15399761 0.14250627 0.018342065
000120 c0 99 8d 3e 89 a9 97 3d fa d9 91 bd 31 5f b4 3d
       0.27656364 0.07405383 -0.07121654 0.08807219
000130 0d f4 2c 3e ad 3b c8 3d 93 84 1f be 78 eb 99 bd
       0.16889973 0.09777007 -0.15577917 -0.07515615
000140 73 a2 a1 bd 57 12 74 3d 70 90 c4 be a2 b8 87 bd
       -0.07892313 0.059587803 -0.38391447 -0.06627013
000150 a0 59 f4 bc a8 4c 11 3d 32 47 1e 3e 31 97 9e be
       -0.029827893 0.035473496 0.15456846 -0.30974725
000160 93 7c 50 be 6c 39 8b 3d 12 ca e9 3d 70 40 ab bd
       -0.20360021 0.06798062 0.11415495 -0.083619
000170 e9 c2 4f 3c 24 dc e5 3c dc df b4 3d 58 c1 f6 3a
       0.012680748 0.028059073 0.0883176 0.0018825931
000180 98 bb 6a be 63 05 58 bd 25 98 ea 3d 1b 3e b5 bd
       -0.22923124 -0.052739512 0.114548005 -0.08849736
000190 4a da 36 be 5b 35 c7 3d 94 d4 c7 bd 13 b6 83 be
       -0.17856708 0.097269736 -0.09757343 -0.2572485
0001a0 45 12 bd 3b 2e 48 25 be c8 57 f8 3d a4 2f b0 bb
       0.00577 -0.16140816 0.12126118 -0.005376773
0001b0 f8 83 0c 3e 4a 20 99 be 2c 10 6f be 03 79 9e bc
       0.13722217 -0.29907447 -0.23346013 -0.019344812
0001c0 d6 be 04 be fd 2a 2d be 87 47 3b be 00 ec a9 3c
       -0.12963423 -0.1691093 -0.18289004 0.020742416
0001d0 0c 21 10 bd ec bf 4b be 5b 74 ab bd b6 98 7e be
       -0.035187766 -0.19897431 -0.083718024 -0.24862942
0001e0 be 52 15 be ab a4 77 be 00 c8 0f 3e 7a 73 09 be
       -0.14582345 -0.2418391 0.14041138 -0.13422957
0001f0 e6 1c 30 be 01 25 77 bd 62 a5 1d 3e c7 ff 78 bc
       -0.17198524 -0.060338024 0.1539512 -0.015197701
000200 f6 91 5e 3e fc b9 8a be 74 34 25 bd 68 02 cf 3c
       0.21735367 -0.2709502 -0.040333226 0.025269702
000210 21 68 75 3e b7 e9 23 bd d0 33 aa 3d 7f 34 c7 bd
       0.23965503 -0.04001781 0.08310664 -0.0972681
000220 de 58 1f be e9 8a 6d bd 1e 8e ff bd dd 6f ef bd
       -0.15561244 -0.057993803 -0.124782786 -0.11691258
000230 6f 32 bf bb 7b e1 22 3e 0d ec 83 3e a9 bb 28 3e
       -0.0058348696 0.15906326 0.2576603 0.16477837
000240 ff be c9 3c 94 c4 95 3e 81 6c 1a 3e c2 77 80 bd
       0.024627207 0.2925154 0.15080453 -0.06272842
000250 65 f2 09 3e a6 cc ae bd 6a 10 59 bb d9 c8 c3 3e
       0.13471372 -0.08535127 -0.0033121356 0.38239172
000260 00 2c 6c 3e 8e d8 d8 3d 03 43 29 bd 0b da fc 3d
       0.2306366 0.105881795 -0.041323673 0.12346276
000270 64 03 c5 3e 0c 8b 78 3e 34 d4 09 3d 11 4f 91 bd
       0.3847915 0.24271792 0.03364964 -0.07095159
000280 de 81 84 3e c0 b1 61 bd f1 6a 3e be 31 5c c4 3d
       0.2588033 -0.055101156 -0.18595482 0.095878966
000290 24 f7 cc bd 1f 7d 8c ba fd 95 c2 3c 49 b0 39 3e
       -0.10008076 -0.0010718441 0.02375316 0.18133654
0002a0 98 0f 95 bd b6 cf d7 3d 4c 2d 09 be ee a4 8a 3a
       -0.07278365 0.105376646 -0.13396186 0.0010577717
0002b0 43 b0 75 be 9e b0 3f 3e 0f d5 04 3e b1 db f4 3d
       -0.2399302 0.18719718 0.129719 0.11955965
0002c0 68 2b 34 be e7 cd 6e bc 6f f1 07 3e 89 2b 39 be
       -0.17594683 -0.014575458 0.13275693 -0.18083014
0002d0 4e 77 36 3d 70 2d df 3d a3 1b 48 be 7a e2 96 3e
       0.04454737 0.108973384 -0.19541793 0.29469663
0002e0 15 da 39 3e 96 b3 ec 3d bd 14 45 be 8e a8 6b bd
       0.18149598 0.11557691 -0.19246192 -0.057533793
0002f0 0d c8 a2 3e d7 a0 fc 3d c2 ab cc bd e4 ff 1f be
       0.31793252 0.12335365 -0.09993698 -0.15624958
000300 46 a7 e7 be 82 82 b7 3d 72 05 85 3e aa c6 12 3e
       -0.45244807 0.08960439 0.25980717 0.14333597
000310 9b 4d 76 3d ec d5 38 3d 27 e4 1e 3d ef 11 67 3d
       0.060132604 0.045125887 0.0387918 0.056413587
000320 7d a9 34 3d e4 a1 51 3b d5 1e 3c 3e 1a 56 90 3e
       0.04410695 0.0031987363 0.18371136 0.2819069
000330 e8 aa 73 3e 65 74 ab be d5 6e c0 be 9d 19 0c bd
       0.23795664 -0.3348724 -0.37584558 -0.034204114
000340 6b 15 3c 3e 82 4b ae be 1e 86 4c be 2d fa 30 3d
       0.18367545 -0.34041983 -0.19973037 0.043207336
000350 23 4e 62 bb 99 1d 20 3d 1a ed 6f 3e c7 48 af bd
       -0.0034531436 0.039090727 0.23430291 -0.08558803
000360 b3 aa 0c be 9f f3 1d bd 1a b1 39 3e a4 bf 0c 3e
       -0.13736992 -0.038562413 0.18133965 0.1374498
000370 ce 3e b4 be 21 e1 35 be 3d 02 eb bd 99 eb 64 3e
       -0.35204166 -0.17761661 -0.11475036 0.22355498
000380 78 ea 29 3e 06 41 05 be 04 cd 89 3d 9c 45 b2 bd
       0.16593349 -0.13013086 0.06728557 -0.08704683
000390 21 0d 7c bc 88 2f e6 bd c4 f7 d3 bb 85 4f 88 3c
       -0.01538399 -0.112395346 -0.006468745 0.01663948
0003a0 7d c3 3b be ed 41 0b 3e 98 90 50 be 21 15 41 be
       -0.18336292 0.13599367 -0.20367658 -0.18855716
0003b0 9c a7 9b 3d 19 83 d3 bc d1 b4 8d 3d 0e 4f 01 3d
       0.07600328 -0.025819348 0.069192536 0.031569533
0003c0 2b c9 09 bd 4f cb b4 3c 0c 77 48 3d f2 b6 e5 bd
       -0.033639114 0.022069601 0.048941657 -0.11216535
0003d0 5c e9 07 3e 40 aa 98 bd b7 f2 a3 be 5e fc 85 3d
       0.13272613 -0.074543476 -0.32021114 0.06542276
0003e0 d1 45 a7 3c 43 9f 1b 3d fe 01 10 be 7a 1a d1 3d
       0.020419033 0.03799368 -0.1406326 0.10210128
0003f0 9e 93 14 3e e1 8f 71 bd c1 a1 49 be 4a 24 01 bc
       0.14509436 -0.058975104 -0.1969061 -0.007882187

sparse.routing_experts.0.layers.0.0.bias f4 [32]
000000 57 b4 e0 3c 37 35 12 be 34 85 89 3d 0b 51 ae 3d
       0.027429743 -0.14278112 0.067148596 0.085115515
000010 df 27 87 bc 5f e2 be 3d bc e3 20 be 1a 02 1f be
       -0.016498504 0.093205206 -0.15711874 -0.15528145
000020 e9 db b8 be 29 4e 69 3e e3 66 04 3d a8 4f a5 bd
       -0.36105278 0.22783722 0.032324683 -0.08071834
000030 a8 b1 d5 3d 21 b8 00 be 62 c0 9a 3d e2 33 2d 3e
       0.10434276 -0.1257024 0.07556225 0.16914323
000040 c9 ec 27 bd c9 b0 08 bd 95 2a 13 3e 49 a8 50 be
       -0.0409973 -0.03337172 0.14371713 -0.20376696
000050 d3 62 56 3e 4f 66 fd bd c3 d0 34 be 40 02 bc bd
       0.20936136 -0.123730294 -0.17657761 -0.09180117
000060 a0 09 15 be 79 29 28 3e c4 38 98 3c 94 de 5e bd
       -0.14554453 0.1642207 0.018581755 -0.054411486
000070 c4 f3 7f be 20 8b 32 be e0 f3 7f 3c 66 93 8e be
       -0.24995333 -0.17435884 0.015622109 -0.2784683

sparse.routing_experts.0.layers.1.0.weight f4 [32, 32]
000000 fc 3c 8c be c9 f4 05 be 58 20 6b be d4 3a 60 be
       -0.27390277 -0.1308166 -0.22961557 -0.21897441
000010 19 ba 51 be 95 62 63 be 70 8d 1f bd 67 f5 8b be
       -0.20481147 -0.22205575 -0.038953245 -0.27335665
000020 0d 37 1d be 8b 11 45 be cb 14 60 be 86 2a 15 be
       -0.15353031 -0.19244973 -0.21882932 -0.14567003
000030 1a 3d 8c be 1b 34 b5 bd 61 6c 95 be 67 81 2d bd
       -0.27390367 -0.08847829 -0.2918425 -0.042359736
000040 92 8b ad bd 1c c0 8e be 5d 20 53 be ad 6b 18 be
       -0.084738865 -0.27880943 -0.20617814 -0.14884825
000050 32 3b 11 bc 4f 65 1c be 77 29 00 be f6 e5 e0 bd
       -0.008864211 -0.15273021 -0.12515818 -0.109813616
000060 00 cd 23 be b3 52 ad 3a 9f 9e a1 be 01 c5 7a be
       -0.1599617 0.0013223499 -0.3156633 -0.24489214
000070 9b 0d ab be 66 81 7f be 33 1f 9a be 6e 0d bc bc
       -0.33408818 -0.24951705 -0.30101928 -0.022955623
000080 2e f7 ea 3d cb 2a b4 3d ee e8 1a be ca 8c 95 bc
       0.11472927 0.087972246 -0.15127918 -0.01825561
000090 e0 57 00 be 84 93 29 3e 42 5a 86 3d aa aa d6 bd
       -0.12533522 0.16560179 0.06560184 -0.1048177
0000a0 e3 e2 5e 3e 65 83 56 3d 25 f4 4e bd 12 69 0c 3e
       0.21766238 0.0523714 -0.050525803 0.13711956
0000b0 00 f1 b6 3d a6 85 8f bd 96 8a 0a bd f0 97 32 3e
       0.08932686 -0.07007913 -0.033823572 0.17440772
0000c0 90 99 f5 3d e1 28 44 be a6 6f 3b be 0c 7b b2 3d
       0.1199218 -0.19156219 -0.18304309 0.087148756
0000d0 40 fc d8 bd 91 9e 4e 3c 98 8f 4a bd e3 64 01 be
       -0.10594988 0.012611047 -0.049453348 -0.12636141
0000e0 d5 0c ee bd 77 20 0d bd 2f 66 01 3e ec e1 c5 bd
       -0.11623541 -0.03445479 0.12636636 -0.09662232
0000f0 d8 61 c3 bd 07 c1 ff 3d 36 19 27 be 50 fc b4 bd
       -0.095401466 0.12487989 -0.16318211 -0.08837187
000100 e8 aa 69 3d 7b 47 e0 bd e0 a7 a9 3e 19 68 12 3e
       0.057047755 -0.10951134 0.3313589 0.14297523
000110 7b 89 9e 3b 42 70 0b 3e ad 6b 2d 3c 93 eb b5 bc
       0.0048381663 0.13617042 0.010584754 -0.022207057
000120 9e 04 63 3d 7b aa 63 3e 99 f0 45 3e 07 f7 c0 3e
       0.055424325 0.22233002 0.19330062 0.37688467
000130 a1 31 b0 bc 2f ab 5f 3c cd b7 64 3e b6 bb 3f 3e
       -0.02150804 0.013651653 0.2233574 0.1872395
000140 74 6d 15 be f7 6a 82 3e 1c a2 bd 3d cd d3 a1 3d
       -0.14592534 0.25472233 0.092594355 0.07901726
000150 e5 df 73 3e d2 e1 86 3e db c0 97 bb ed fd cd 3d
       0.23815878 0.26344162 -0.0046311445 0.10058198
000160 59 54 60 3e 8f 92 87 3e 00 cd 01 be 0c 7f 87 3e
       0.21907176 0.26479003 -0.12675858 0.26464117
000170 7e 29 7d 3e 38 28 99 3e 3d 3d 48 3e 02 6d be 3d
       0.2472286 0.29913497 0.1955461 0.09298135
000180 14 fb 0c be aa c5 82 be ee 82 ae be a8 58 a1 bd
       -0.13767654 -0.2554143 -0.34084266 -0.07878238
000190 d8 20 a1 be a2 3e be bd a3 4d 9e be d7 3d ab be
       -0.3147037 -0.0928929 -0.30918607 -0.33445618
0001a0 4d df 9b be 6e e1 60 be 65 6d 8f be 47 54 89 be
       -0.30443802 -0.21960995 -0.2801315 -0.2682211
0001b0 f7 02 8f be 20 81 19 be 8f e6 b4 be 2e 21 9c be
       -0.2793195 -0.14990664 -0.35332152 -0.30494064
0001c0 29 07 56 be 2c 8e 20 be 5c ad c9 be 7b 5d 80 be
       -0.20901169 -0.15679234 -0.39390075 -0.2507132
0001d0 49 8e 8a be 55 58 aa be 4c 35 9a be 54 e2 47 be
       -0.2706168 -0.33270517 -0.30118787 -0.19519931
0001e0 1f 63 6d be 62 7e ad be 5c 97 ca be 3f ac 91 be
       -0.23182343 -0.33885485 -0.39568603 -0.28451726
0001f0 96 4b 88 be 1f c8 ad be 90 0a 30 be 6a b7 85 be
       -0.26620167 -0.33941743 -0.1719153 -0.26116496
000200 bc 99 d3 3d 9d c8 93 3e e6 0d a5 3e 76 14 a8 3e
       0.10332057 0.28863993 0.32237166 0.3282811
000210 61 c4 2d 3e 79 f4 be 3e 78 80 a0 3d bf a5 9d 3e
       0.16969444 0.37295893 0.078370035 0.30790517
000220 24 ea b8 3e aa 54 9c 3d 9c 5d 8d 3e 83 0a 29 3e
       0.36116135 0.07633336 0.2761048 0.16507916
000230 a3 01 98 3e 7d a7 10 3e fb 7b 45 3e 53 78 42 3e
       0.2968875 0.14126392 0.19285576 0.18991213
000240 41 ed 7c 3e f7 82 df 3d 1f 72 d6 3e c9 f4 22 3e
       0.2469988 0.109136514 0.41883942 0.1591369
000250 5f 71 b0 3e 9e 47 9f 3e 0a 8c 29 3e f5 3d 7b 3d
       0.34461495 0.31109327 0.16557327 0.061338384
000260 3e 94 71 3e eb 25 78 3e b0 a6 eb 3d 7a a1 95 3e
       0.23591706 0.24233215 0.115064025 0.2922476
000270 b5 5a 60 3b 1a 38 a6 3d 58 1b 8c 3e c3 50 08 3e
       0.0034233753 0.08116169 0.27364612 0.13312058
000280 17 ff 70 3e 43 6f 40 3e 63 cc 9a 3e ff 31 0b 3d
       0.23534809 0.18792443 0.3023406 0.033983227
000290 4a 2d 22 3e 20 17 b4 3c 4a b1 4c 3e 99 d2 60 3c
       0.15837589 0.021983683 0.19989505 0.013722085
0002a0 90 0a 2a 3e 11 b4 97 3e 06 c6 5a 3e c7 22 03 3e
       0.16605592 0.29629567 0.21364602 0.12806235
0002b0 7e 18 84 3e 65 4a 92 3e bd f3 f2 3d 66 65 84 3e
       0.25799936 0.28572384 0.11862896 0.2585861
0002c0 f6 9e 3f 3e 09 5b 50 3d ad 94 39 3e d1 01 9b 3e
       0.18712983 0.050868068 0.18123122 0.30274823
0002d0 f5 63 6d 3e f9 6c ed 3d c8 90 7d 3e fd 04 74 3e
       0.23182662 0.115930505 0.24762261 0.23830028
0002e0 df 7f 2d 3e 53 e9 9d 3e 56 01 3f 3e 83 a3 9b bc
       0.1694331 0.30842075 0.18652853 -0.018998867
0002f0 4f 4b 1b ba 1c f6 ee bc 0b c5 1f 3e 6b 4c 0a 3e
       -0.00059240026 -0.029170088 0.1560251 0.13505714
000300 86 71 cc 3d 9b d1 68 3e 4e af fc bc 62 81 af 3c
       0.099825904 0.22736208 -0.03084531 0.021424
000310 54 99 35 bd be bc 51 3e 9e 4c 97 3d 00 86 e1 3c
       -0.04433568 0.20482156 0.073876604 0.027529716
000320 20 e5 f8 3d 3a 00 a7 3d 01 8c 14 3e 2c 4c a0 3e
       0.12153077 0.0815434 0.14506532 0.31308115
000330 60 48 0a be 32 bd 3d 3e 68 52 a2 bc 14 17 20 3e
       -0.13504171 0.18529204 -0.019814685 0.15633804
000340 9f 54 3a 3e bd ea 8c 3d af a1 ce 3d d2 6f fb bd
       0.18196343 0.0688071 0.100894324 -0.122771874
000350 a1 7f bb 3d 9d af 0c be 79 df cf bd b2 ad cc bd
       0.09155203 -0.13738866 -0.10150046 -0.09994067
000360 da 09 06 be 75 b8 86 bd 36 59 90 3e bb 3c de 3d
       -0.13089696 -0.06578151 0.28193063 0.10851427
000370 b7 17 15 be 04 6e 52 3d 6b ec 2e 3e ae c7 13 3d
       -0.14559828 0.05137445 0.17082374 0.0360791
000380 47 d5 d4 3d 49 00 5e 3e 51 b0 4f 3e fc cb 95 3d
       0.10392242 0.21679796 0.20282103 0.073142976
000390 07 95 f7 3d 60 dd 6d 3e 42 ef 60 3e 0a 2b 77 3e
       0.120889716 0.23228979 0.2196627 0.24137512
0003a0 f3 14 39 3e f2 e8 c2 3e 1e 8b 74 3e 8e f5 8a 3e
       0.18074398 0.38068348 0.23881194 0.27140468
0003b0 ef 3f c6 3e 90 1a af 3e 0b c7 61 3e 6c d4 81 3e
       0.38720652 0.34199953 0.22048585 0.25357378
0003c0 9e 0e b0 3e 7d 21 6b 3e 85 ec 29 3e a3 ea d8 3d
       0.34386152 0.22961994 0.16594131 0.105916284
0003d0 eb 5d aa 3e ac 6c 9e 3e 48 73 da 3e 61 80 3f 3e
       0.3327478 0.30942285 0.42666078 0.18701316
0003e0 42 e5 cf 3e 88 47 cf 3d 6f f9 e8 3d 3c 76 18 3e
       0.40604597 0.101210654 0.11375701 0.14888853
0003f0 84 53 3b 3e b7 26 85 3e b0 5b 76 3e 8b 1c 95 3e
       0.18293577 0.260061 0.24058414 0.2912334

sparse.routing_experts.0.layers.1.0.bias f4 [32]
000000 cb 1c 6f be 40 dc 63 3d 10 c7 f3 3c 2e d2 b1 be
       -0.23350827 0.05562997 0.029758006 -0.34730667
000010 39 cb 20 3e 24 3c ae 3e f6 51 30 3e 29 38 da 3d
       0.15702523 0.3403026 0.17218766 0.10655243
000020 4d 63 91 be f2 c8 2c be 64 db 07 3d 90 7f cb 3d
       -0.28396073 -0.1687353 0.03316821 0.0993644
000030 ff 2e c1 3d 4e 72 05 3e bb 61 c9 3d e4 9d 16 be
       0.09432792 0.13031885 0.09833094 -0.14708668
000040 a5 1f 16 be 0d 62 1b be b3 7d a3 3e 36 62 72 be
       -0.14660509 -0.15174122 0.31931838 -0.23670277
000050 bf 69 de bc e5 a2 89 3e 05 7c ea bd b7 70 bc 3e
       -0.027150033 0.2688209 -0.11449436 0.36804745
000060 b8 c8 bb bc a3 81 b8 3e ca a9 73 be b8 2f 36 3d
       -0.022922859 0.36036405 -0.23795238 0.044479102
000070 5c 0e 0f be 24 5e 2e be a7 31 c1 be db 9b 8b bd
       -0.13970321 -0.170281 -0.37733194 -0.068168364

sparse.routing_experts.1.layers.0.0.weight f4 [32, 32]
000000 18 bd ea 3d 0e 34 0f 3e 19 53 53 3c 85 76 df bd
       0.11461848 0.13984701 0.01289823 -0.10911278
000010 61 af 55 3d e1 c4 07 be 58 a9 b1 bd db 2f e1 bd
       0.052169207 -0.13258697 -0.08674878 -0.10995456
000020 3e 76 8c bd 5e 5b 6a 3d 50 d8 00 bd cd f5 3c bd
       -0.068584904 0.05721604 -0.03145629 -0.04613285
000030 56 54 52 bd 4d 5c e7 3d 8e cb 1f bd c7 8d 29 3e
       -0.05134996 0.11296902 -0.039012484 0.1655799
000040 04 68 e8 bd f9 1d 3b 3d ef 22 bb 3d a3 fe a4 bc
       -0.113479644 0.04568288 0.091375224 -0.020140951
000050 96 cd a1 bd 8a a5 ef bd 89 90 d4 bd 98 69 49 3c
       -0.079005405 -0.11701496 -0.103791304 0.012293242
000060 e2 1f f3 bd 2e fd 74 bc 9d f8 27 be 87 5f 2c 3e
       -0.118713155 -0.014952941 -0.16403432 0.16833316
000070 c1 15 ab 3d c8 ed 21 3e bd b5 99 bd 91 89 9c bd
       0.083537586 0.15813363 -0.07505367 -0.07643426
000080 be b6 12 be 8b f9 2b 3e e0 f1 06 be 18 ab 00 3e
       -0.14327523 0.16794412 -0.13178205 0.12565267
000090 86 e3 43 3d 2b 32 08 3c 45 44 27 be 8b db 5b 3d
       0.047824405 0.008312742 -0.16334637 0.05367617
0000a0 4f 65 af bd ba a3 23 be 75 6f 4c 3d 05 ab 23 3d
       -0.08564245 -0.15980425 0.04991098 0.03995802
0000b0 37 1b ee bc 71 07 e8 3d e9 9d 0a 3e 0f c8 5a bd
       -0.029065711 0.11329544 0.135368 -0.053413447
0000c0 f1 b8 38 bb d9 14 2b 3d a5 25 04 bd 77 11 ef bd
       -0.0028186406 0.04176793 -0.032262463 -0.11673253
0000d0 51 fd ef bd b0 7e 2e 3e 5c 6e c0 3b 4f 71 83 bb
       -0.11718238 0.17040515 0.005872531 -0.00401131
0000e0 5d cf 1d 3d da 29 6b 3d 7e 63 56 bb 85 0f 1c 3e
       0.038527835 0.05741296 -0.003271311 0.15240295
0000f0 a7 c5 3c 3d 22 ff 2d 3d 94 ff b1 3d db 7b d8 ba
       0.046086933 0.04247964 0.08691326 -0.0016516404
000100 b7 ae 0b be 0d 26 0b bd 80 8d 46 3d fc 2b 78 3d
       -0.13640867 -0.033971835 0.04847479 0.06058882
000110 7c 2e 03 be 56 e3 2b be fa d5 78 3d 3d a2 a2 3d
       -0.12810701 -0.1678594 0.06075094 0.07941101
000120 3f 1d 12 3e 1c 48 fd 3c e5 8b e3 3d b4 29 cc 3d
       0.14268969 0.030918173 0.11110667 0.09968892
000130 f5 e3 6b bd 94 92 e5 bd d9 ef ab bd a7 e1 ec bd
       -0.057590444 -0.11209598 -0.08395357 -0.11566477
000140 f7 19 79 3c 94 a7 38 bd 51 e4 d3 bd 6c 30 f7 bd
       0.015203944 -0.04508169 -0.10346282 -0.120697826
000150 e5 75 45 ba a2 a5 34 be d2 2e 68 bd bf c7 21 be
       -0.0007532521 -0.17641309 -0.056685276 -0.15798853
000160 01 24 11 bb 34 cf cc bd c0 63 25 be 7a f7 22 3e
       -0.0022146704 -0.10000458 -0.16151333 0.15914717
000170 b8 ac 2e 3e 3d 17 28 3c 60 40 d1 bd 2e fc 8b bd
       0.17058074 0.010259447 -0.10217357 -0.06835209
000180 70 67 e7 bd ed f1 05 be 08 93 0a be fd d8 da 3b
       -0.11299026 -0.13080569 -0.1353265 0.006678699
000190 f5 9f 6e 3d ee a0 0d 3e 93 8c 6d bd 30 bb b3 3d
       0.058258016 0.13830921 -0.05799539 0.087759376
0001a0 2d af 0a 3e d2 11 ba bd 7b 45 88 bd 29 b1 f3 bd
       0.13543387 -0.0908543 -0.06653877 -0.11899025
0001b0 65 ec da bd ff 59 0e bd f1 5c d5 3d b6 86 62 3d
       -0.1068962 -0.034753796 0.10418118 0.05530425
0001c0 2c 6c ed 3d fe 2a 96 bd 79 69 65 bd 79 05 36 3d
       0.11592898 -0.07332419 -0.05600879 0.044438813
0001d0 da fe 91 bd 8b 2f 10 3e a2 e6 08 3e d2 f4 62 bc
       -0.07128687 0.14080636 0.1336923 -0.013852315
0001e0 75 56 82 bd bb b9 2e 3e 17 02 93 3d 2f c0 e1 3d
       -0.063641466 0.17063038 0.07178133 0.11022984
0001f0 72 d7 f1 3c 4b a6 84 bc 9d cc 19 be 27 29 1b 3e
       0.029521678 -0.016192576 -0.1501946 0.15152417
000200 74 f9 15 3e b4 db 28 be 1d 5d 8c bd 7b 6e fb 3d
       0.1464594 -0.1649006 -0.068536974 0.12276932
000210 00 ed 37 bb f3 75 54 3d a8 59 95 bd 80 d6 82 bc
       -0.0028064847 0.051870298 -0.07292491 -0.015971422
000220 05 82 15 be ff 76 ae bd f8 fb 54 3d e6 65 30 3e
       -0.1460038 -0.085187905 0.05199811 0.17226371
000230 df 43 f3 bd 34 95 e3 bd 24 45 2b 3d c6 c3 96 bc
       -0.1187818 -0.111124426 0.041813985 -0.018403899
000240 df 56 15 be 03 0d c5 3d 11 d8 47 bd 1f de 07 be
       -0.1458392 0.096216224 -0.04879004 -0.13268326
000250 8e 09 f6 3b a4 24 67 bc a4 59 2b 3e e4 a1 ed bd
       0.007508463 -0.014107857 0.16733414 -0.11603144
000260 3f bb a1 3c d6 73 2a 3e 39 15 35 bd 8d 45 93 bd
       0.019742606 0.1664575 -0.044209693 -0.07191
000270 51 3c a2 3d cf 07 b5 3d fe d0 91 3d 8e ea 16 be
       0.07921661 0.0883938 0.0711994 -0.14737913
000280 72 99 bf 3d 58 c9 32 3d f0 cb ac 3d df b9 0a 3d
       0.09355439 0.043649048 0.084373355 0.033868667
000290 f7 f8 b1 3d de 43 cc 3b d2 90 0f 3e ea fe 24 be
       0.086900644 0.0062336763 0.14020088 -0.16112867
0002a0 b3 bd aa bd bc 54 f8 bd b8 94 12 be 00 ab 07 be
       -0.083369635 -0.12125537 -0.14314544 -0.13248825
0002b0 51 e0 7c 3b 42 9e b3 3d fd 72 8f bd 8c 7a 82 3d
       0.0038585851 0.0877042 -0.07004354 0.0637103
0002c0 e2 eb 17 3e fa 8d 14 be 71 cc 31 bd fe 41 bf bd
       0.14836076 -0.14507285 -0.04340786 -0.09338759
0002d0 ef 75 ce bd d6 1c bb 3d de 33 7f 3d 87 5e 32 be
       -0.10081088 0.091363594 0.062305324 -0.17418872
0002e0 58 80 fc 3d 40 ce 09 3e 52 d7 10 3e 0e 7b 54 ba
       0.12329167 0.13457584 0.14144638 -0.0008105495
0002f0 70 1d 1e be af c3 fa 3c db b4 51 3d ff 4a a9 3d
       -0.15440917 0.030610887 0.051197868 0.082662575
000300 b4 6d d1 bd 0e 30 1d 3d 2c 50 d8 3b ed c5 7a 39
       -0.10226002 0.038375907 0.006601354 0.00023915591
000310 d9 f0 e4 3d db 42 0a 3e a0 ba 3b 3d b2 1b 92 3d
       0.111787505 0.13502066 0.045832276 0.07134189
000320 04 4d b1 3d 9b a4 b2 bd e2 8f cd bd 85 a1 e7 bc
       0.08657268 -0.08722802 -0.10037209 -0.02827526
000330 32 44 b6 3d a6 8b 6c bb 6a 3d 35 bd 14 79 00 3e
       0.08899726 -0.003609398 -0.044248022 0.12546188
000340 a4 63 d4 bc 67 bd 73 3d 03 41 df bd 15 fe 1f bd
       -0.025926419 0.0595068 -0.10901072 -0.03906067
000350 4c 1e 32 be 25 1b 79 3d 6d 2d 0e 3e 8c 7f 2c be
       -0.1739437 0.060816903 0.13884516 -0.1684553
000360 fb 39 b1 3b 05 95 2d 3d ab 61 71 bd 4f f5 c1 3c
       0.005408523 0.042378444 -0.058931034 0.023676543
000370 ff 6b 01 be 0f af 4b bb a3 08 22 3e 57 63 29 3e
       -0.12638853 -0.0031079685 0.15823607 0.16541801
000380 39 db 28 3e bb 3c 69 bd 4e cd c7 3d 95 1d 25 be
       0.16489877 -0.056942683 0.09755956 -0.16124566
000390 30 51 0c 3d 64 45 26 bd 9d 66 d4 bb a4 9a 1a 3e
       0.034257114 -0.04059352 -0.006481959 0.15098053
0003a0 24 18 2a bd f4 88 9a bd 0b c9 29 3e f6 a4 c6 3d
       -0.04152693 -0.07545653 0.16580598 0.096994326
0003b0 8d 08 92 bd f7 92 18 be 09 33 92 3d 8e 79 d2 bd
       -0.07130537 -0.14899813 0.071386404 -0.10277091
0003c0 40 d7 c1 bd 24 06 8d bc 4d d5 90 3d ba 4b 30 3c
       -0.09464884 -0.017214842 0.07071934 0.010760242
0003d0 36 50 a6 bd 35 45 89 bd 40 f9 c1 bc c9 31 1b 3e
       -0.08120768 -0.06702653 -0.023678422 0.1515571
0003e0 df 4a 94 bd 14 91 45 3d e2 99 53 3d 88 0f 31 3e
       -0.07240843 0.04823406 0.051660426 0.17291081
0003f0 8c 58 e5 bd 3c ed c6 bc 1d bf f4 bd 58 a0 75 3d
       -0.111985296 -0.024283044 -0.119505145 0.05996737

sparse.routing_experts.1.layers.0.0.bias f4 [32]
000000 71 e9 ea 3d ba fe f7 bc 44 48 13 3d 16 b5 a3 bd
       0.11470307 -0.03027283 0.03595759 -0.07993524
000010 40 77 27 3d 65 7a 0b be 33 0d 16 3c 68 38 3c bd
       0.04088521 -0.13620909 0.00915842 -0.04595223
000020 ab 6a 83 bd c9 7c f5 3d 1a 72 33 3d b2 2b 2f 3e
       -0.0641683 0.119866915 0.043809988 0.17106512
000030 3b ad 2e 3e a0 29 03 be 85 df d9 bd d3 8f ef bd
       0.1705827 -0.12808847 -0.10638336 -0.11697354
000040 bd 56 00 3d 8f 14 f6 bd 71 88 47 3d 67 bd 38 3d
       0.03133272 -0.1201564 0.048714105 0.045102503
000050 b7 a7 2e 3d 04 83 04 3e 85 df ff 3d ca 77 22 be
       0.042640414 0.12940603 0.12493805 -0.15866008
000060 08 f7 16 be ee 2b 2e 3e 63 86 d7 3c da 21 bc 3d
       -0.14742672 0.17008945 0.026309198 0.09186144
000070 a2 d4 d8 3d 6a e3 d3 3d a7 8f 1f 3e 92 f2 28 3e
       0.105874315 0.1034611 0.15582143 0.16498783

sparse.routing_experts.1.layers.1.0.weight f4 [32, 32]
000000 a1 f5 0a be d3 97 87 3d bf 96 17 be 24 7e 8e 3d
       -0.13570262 0.06620755 -0.14803599 0.06957653
000010 79 66 04 be 57 07 90 bd 45 ff 7f 3d 70 5c fa bd
       -0.12929715 -0.0703265 0.062499303 -0.12224662
000020 cb b8 b3 3d 2c c2 fd bd 3c a0 92 3d 06 26 f3 bc
       0.08775481 -0.12390551 0.071594685 -0.029681217
000030 33 6c f3 bd 99 7d 17 3e a1 3d ea bc d2 ee 2e 3e
       -0.11885872 0.14794005 -0.02859384 0.1708329
000040 65 69 31 be 1c f0 22 be ea 2c af 3d 64 42 09 3d
       -0.17325361 -0.15911907 0.085534886 0.03351058
000050 ca c4 d5 3d 5f de 20 be 87 f5 d7 3b 39 f0 d1 3c
       0.10437925 -0.15709828 0.0065905484 0.025627242
000060 00 e1 ff bd ea 2e b9 bd 46 f9 0a 3d b1 ca 2e be
       -0.12494087 -0.09042151 0.033929132 -0.17069508
000070 62 69 8b bc de ca 3f 3d 53 55 4a bc 39 8d a3 bc
       -0.017018024 0.04682433 -0.012349444 -0.019964801
000080 bb a1 97 3c bb 2c 33 3e 42 02 ef 3d d7 29 f8 3d
       0.018509736 0.17497532 0.116703525 0.12117355
000090 5f 46 35 be b9 41 b8 3d ad 70 2a be 05 33 20 3e
       -0.17702626 0.089969106 -0.16644545 0.15644462
0000a0 e1 48 f7 bd 9f 06 27 bd ef f0 08 3e b7 f2 21 bd
       -0.120744474 -0.0407778 0.13373159 -0.03953811
0000b0 19 01 33 3e f7 47 00 bd 2d 06 ed 3d b3 27 01 3e
       0.17480887 -0.03131863 0.115734436 0.126128
0000c0 24 25 2a 3e 0b ff 23 3e 42 19 b7 3c 84 db 0c be
       0.1661573 0.1601526 0.022350911 -0.13755614
0000d0 38 ef cb bd 88 98 e2 3c 07 eb c7 3d f3 29 00 3d
       -0.09957737 0.027660623 0.09761625 0.031290006
0000e0 f3 de af 3d 00 d2 6a 3d 50 86 80 3c 3c d2 b8 bd
       0.08587446 0.057329178 0.015689045 -0.09024474
0000f0 9e 86 d5 3d 23 7d 99 bd ae b5 32 be 5e 03 fd bd
       0.10426067 -0.07494571 -0.17452118 -0.12354158
000100 6c 76 7e bd bc b2 27 be c5 4e 99 bd f1 54 bb 3d
       -0.062124655 -0.16376776 -0.07485727 0.09147061
000110 d9 d3 f5 3d 77 2f 33 be ad c7 dd bd b2 36 31 3d
       0.12003297 -0.17498575 -0.10829101 0.043265052
000120 d7 83 08 be 63 56 21 3e 1b 37 83 bd bd 3b bc bd
       -0.13331543 0.1575561 -0.06406995 -0.09191082
000130 53 f7 a4 3c a4 c0 21 3e df 17 36 bd 23 25 81 bd
       0.020137465 0.15796143 -0.04445636 -0.063059114
000140 07 8f 60 bc 44 5f be bb 61 d2 30 3d 19 1a e7 bd
       -0.013705975 -0.0058096964 0.043169383 -0.112842746
000150 74 b6 1a 3c e4 21 29 3c 76 9d 90 3d 7c 3a 91 3c
       0.009442914 0.010323022 0.07061283 0.017728083
000160 b7 fc 9b 3d 78 14 58 bd 81 18 08 be 9f 4a 2a be
       0.07616561 -0.052753896 -0.13290597 -0.16630028
000170 58 5a f3 3d 3d 41 2a be 6a a9 e1 bd 80 b9 f1 3d
       0.11882466 -0.16626449 -0.11018641 0.118029594
000180 50 d6 eb bd ab 61 0b 3d ac e8 89 bd b0 da 02 3e
       -0.11515486 0.03402869 -0.06733832 0.12778735
000190 cb ac 19 be ea 57 1a be da ab 1f 3e 4c ab 3a 3d
       -0.15007322 -0.15072599 0.155929 0.045573518
0001a0 34 c8 07 3d e0 db ad 3d 2c 57 f0 3d c4 be 07 be
       0.033149913 0.084892035 0.11735377 -0.13256365
0001b0 0a 6f 19 3e ee ba e3 bd d2 1f 15 3e 87 b7 08 3e
       0.14983764 -0.111196384 0.1456292 0.1335126
0001c0 45 a3 23 3e f1 63 1b be b9 ef e8 bd 59 a4 23 be
       0.15980251 -0.15174843 -0.113738485 -0.15980662
0001d0 bb 47 72 bd 45 84 00 be 98 ec 0d 3d 13 9b 09 bd
       -0.05915044 -0.12550457 0.03464946 -0.033595156
0001e0 a1 04 5a bd 2b 54 d0 bd 87 b1 aa 3d 2b b0 26 3d
       -0.05322707 -0.10172304 0.08334642 0.04069535
0001f0 70 4c 8c 3d 63 b8 0a 3e 15 06 1c be 6f b1 d1 3d
       0.06850517 0.135469 -0.15236695 0.10238921
000200 c7 f7 97 bc 8b a6 08 be 60 01 7c 3d d9 d5 29 3c
       -0.018550767 -0.13344781 0.06152475 0.010365927
000210 17 f3 ed b7 8c 50 76 3c 27 58 1b be 19 2d c6 3b
       -2.83658e-05 0.015033852 -0.15170346 0.0060478565
000220 5f 70 8e bd 1b de 8a 3d 4d fd f8 bd 23 a0 96 3d
       -0.06955027 0.067806445 -0.12157688 0.073547624
000230 de 6a 16 bd bc 95 0b be 4f 11 08 be 84 43 e6 bd
       -0.03672301 -0.13631338 -0.13287853 -0.11243346
000240 28 6b 6e 3d 4b 8a f4 bb d7 c4 ee bd ce 72 11 3c
       0.05820766 -0.007462775 -0.11658638 0.008877469
000250 60 0b 99 3d 96 56 57 bd 45 f7 be bd 4b 56 ef 3c
       0.07472873 -0.05257281 -0.09324507 0.029215952
000260 8c 21 74 bd 85 77 05 3e fa eb 0f be a2 db 00 be
       -0.059602305 0.13033874 -0.14054862 -0.12583783
000270 3f 48 f5 3d 72 13 00 be 51 c6 05 3e d2 76 2c bd
       0.119766705 -0.12507418 0.13063933 -0.042105503
000280 9a dd a9 3d 69 0f 1a 3e 7e ab 87 3d 89 27 3b bd
       0.0829422 0.15044941 0.066245064 -0.045692
000290 72 2b b3 3d 8a ff f1 bd ba f4 0b 3e 2c e8 0a 3e
       0.08748521 -0.11816318 0.13667575 0.13565129
0002a0 dd 44 74 3d b5 8a e5 3d 1a 21 6b bc 96 98 00 3e
       0.059635986 0.11208097 -0.014351154 0.12558207
0002b0 d5 95 47 bc d3 5a a3 3d 30 f4 9d 3d 59 92 ad 3c
       -0.012181719 0.07976308 0.07712591 0.021187948
0002c0 c0 e7 df 3d df 38 da 3d f3 6e 2d be cf d3 04 3c
       0.10932875 0.106553786 -0.16936855 0.00810714
0002d0 57 e4 b5 3d 66 1b d2 bc 83 fe 26 be 2d 86 2a 3e
       0.08881443 -0.02564783 -0.16308026 0.16652746
0002e0 e7 f1 f7 bb 4a 45 c4 bd 4a 27 44 bd 92 2e 17 3e
       -0.007566679 -0.09583528 -0.04788903 0.14763859
0002f0 05 f6 1e bd fd bc 1c be 45 90 2a 3e af f7 15 3e
       -0.03880884 -0.15306468 0.16656597 0.14645265
000300 be f1 3c 3d 0f dc be bc 29 75 b1 bd 27 43 52 3d
       0.04612898 -0.023298291 -0.08664925 0.051333573
000310 0e 5d eb 3d 41 c4 99 bd db 6f 9a bd 3b 1d 43 3c
       0.11492358 -0.075081356 -0.07540866 0.011908825
000320 d0 e3 f4 3d 0a 94 05 3e f6 68 51 3b c4 e7 76 bd
       0.11957514 0.13044754 0.003195343 -0.060279623
000330 0a 03 6c bc d1 c0 dd 3d 0b ea 1e be cf 87 9e bd
       -0.014405021 0.108277924 -0.15518968 -0.07740747
000340 77 97 1f bd 5f 15 40 bd 7f 50 19 be 97 e3 e2 bd
       -0.038962808 -0.04689538 -0.14972113 -0.110785656
000350 8c ed 10 be eb 9d ee 3d 02 71 63 3d 09 f8 bd bc
       -0.14153117 0.11651214 0.055527695 -0.023189561
000360 3c e6 e1 3d 88 07 2f bc a2 2f 2e 3e d1 10 78 bc
       0.11030242 -0.010682948 0.17010358 -0.015140728
000370 d6 c1 22 be e0 42 06 3e 16 22 41 3d c0 65 c1 bd
       -0.15894255 0.13111448 0.047151648 -0.094432354
000380 1f d3 11 3e 57 bd 59 3d 86 af d6 3d d1 6d 5b bd
       0.14240693 0.053159084 0.10482697 -0.053571526
000390 95 e9 01 be f5 6f 67 3d c7 36 7d bd db 88 8a 3d
       -0.1268676 0.056503255 -0.061819818 0.06764384
0003a0 24 7f f4 bd 03 84 30 be 5e 93 23 3e 36 59 1e 3d
       -0.11938313 -0.17237858 0.15974185 0.038659297
0003b0 75 15 0f be 02 83 12 3e a0 f0 52 3d 9c 48 8d bd
       -0.13973029 0.14307788 0.05149901 -0.06898615
0003c0 ab 3b 17 3e ed de ee bc 32 ce 05 3d d9 b4 04 bd
       0.14768855 -0.029159034 0.032667346 -0.032399032
0003d0 1f 8c 29 3e de 0b 8a 3d 12 ea c5 bd 48 b6 7e bd
       0.16557358 0.06740545 -0.09663786 -0.062185556
0003e0 5f d2 1b be 21 86 fb bb e2 b1 20 be 4d b9 00 be
       -0.15216969 -0.0076759015 -0.15692857 -0.12570687
0003f0 47 13 1b 3e 0d bd f4 bd 00 39 12 be 4a 80 e4 bd
       0.15144072 -0.11950121 -0.14279556 -0.11157282

sparse.routing_experts.1.layers.1.0.bias f4 [32]
000000 36 36 04 be c7 e0 79 bd df 77 83 bd 12 63 1c bd
       -0.12911305 -0.06100538 -0.06419348 -0.03818042
000010 06 3d 72 bd 8e cc 13 be 25 dc c2 bd ae 2e 70 bd
       -0.059140228 -0.144335 -0.095146455 -0.058638267
000020 6f b7 de bd 4b e1 16 be b6 b8 07 be f3 f7 ed 3d
       -0.10874831 -0.1473438 -0.13254055 0.11619558
000030 61 e5 47 3d 79 cc 03 3d bf d2 e8 bd 6a 46 a7 bd
       0.048802737 0.032177422 -0.113683216 -0.08167727
000040 ec 09 20 3e 22 6c 2d 3e 6f 03 16 be 10 ae ac bb
       0.15628785 0.1693578 -0.14649747 -0.0052697733
000050 e5 ec 2e bd 32 15 19 3e 5c 6a fe bd 03 e7 b5 bd
       -0.04270639 0.14949492 -0.1242263 -0.088819526
000060 20 7f a8 3c 7b 58 25 be 90 01 0b 3e 0d cd a7 3d
       0.02056843 -0.16147034 0.13574815 0.08193407
000070 86 08 1f be 83 51 cb bd d6 18 80 bd 69 44 9a 3b
       -0.15530595 -0.099276565 -0.06254737 0.004707862
