model/saved/best_model.pt (torch, 4642 bytes, 7 tensors)

fc.0.weight f4 [4, 26]
0	0xbba0acd3	-0.0049034148
1	0xbc1a95c2	-0.009435119
2	0x3df37ea1	0.11889387
3	0x3b0887d5	0.0020832915
4	0xbe1c2bd0	-0.15251088
5	0xbdb30c08	-0.08742529
6	0x39bdcc04	0.00036200893
7	0x39f57186	0.00046814623
8	0xba0c57e2	-0.0005353672
9	0xba2f8160	-0.00066949986
10	0x386192fa	5.3781063e-05
11	0xba2595f4	-0.0006316595
12	0xb92eb353	-0.00016660737
13	0x39ac8fb1	0.00032913455
14	0x39a69ea8	0.00031780195
15	0xb91af7d0	-0.00014778902
16	0x38934ef6	7.024214e-05
17	0x3a198b0d	0.0005857207
18	0x3a2ef17a	0.0006673556
19	0x3a1063f7	0.000550806
20	0xb90f3ddb	-0.00013660586
21	0x3724b30d	9.81685e-06
22	0xb8144640	-3.5351375e-05
23	0xb9a63d20	-0.0003170753
24	0x3564cb21	8.523221e-07
25	0xbaacc9bd	-0.0013182681
26	0x3e3b89ae	0.1831424
27	0x3e9ba8d7	0.30402252
28	0x3c412075	0.0117875235
29	0x3c488d0c	0.012240659
30	0x3e8558c9	0.260443
31	0x3c557a69	0.013029673
32	0x3ee7c97a	0.45270902
33	0x3f080ed2	0.53147614
34	0x3defd433	0.11710396
35	0x3df91cba	0.12163682
36	0x3e2115a7	0.15730916
37	0x3eab0184	0.33399594
38	0x3e99f597	0.30070183
39	0x3db16bf9	0.08663172
40	0x3e2a613b	0.16638653
41	0x3e527045	0.2055064
42	0x3e3cbc1f	0.18431138
43	0x3e6e91a6	0.23297748
44	0x3df7525a	0.12076254
45	0x3e9b3360	0.30312634
46	0x3e1e90e8	0.15484965
47	0x3e0b7602	0.13619235
48	0x3e3a756e	0.18208858
49	0x3f045a5f	0.51700395
50	0x3ecca122	0.39966685
51	0x3e0e01fd	0.13867946
52	0xbdc2c905	-0.09510998
53	0xbe3c8129	-0.18408646
54	0xbe279576	-0.16365609
55	0xbcc50b47	-0.024053229
56	0xbe825550	-0.25455713
57	0x3e067328	0.13129866
58	0xbc3960b9	-0.011314564
59	0x3e12e540	0.14345264
60	0x3e7e8bcf	0.2485802
61	0x3e28497e	0.16434285
62	0x3ea52ade	0.32259268
63	0x3e931cd6	0.28732938
64	0x3e877253	0.2645441
65	0x3eaa9643	0.33317766
66	0x3dff0dc0	0.124537945
67	0x3d316117	0.043305483
68	0x3eac1922	0.33612925
69	0x3e16fa57	0.14743935
70	0x3e030b3b	0.12797253
71	0x3d30bf06	0.043150924
72	0x3e88ec6b	0.26742873
73	0x3e5b7fab	0.2143542
74	0x3e8d569c	0.2760514
75	0x3ea7c633	0.32768402
76	0x3e9e6b7a	0.30941373
77	0x3e9eb5bf	0.30998036
78	0x3d9ea863	0.07746961
79	0x3df8cdd2	0.12148632
80	0x3d67f89d	0.05663358
81	0x3d8d8b87	0.06911378
82	0x3e921063	0.28528127
83	0x3d72c005	0.059265155
84	0x3d0fb645	0.035085935
85	0xbe34cd91	-0.17656542
86	0xbe43bbed	-0.19114657
87	0xbeb6b6e0	-0.35686398
88	0xbdf9f69b	-0.122052394
89	0x3d47775a	0.048697807
90	0xbd8f6978	-0.070025384
91	0xbd49f0cf	-0.04930192
92	0xbe4b888c	-0.19876307
93	0xbda03497	-0.07822531
94	0xbe1b2cb4	-0.15153772
95	0x3de27eb7	0.11059325
96	0xbdafabe9	-0.08577711
97	0xbdec3a6a	-0.11534579
98	0xbdb60e61	-0.08889461
99	0xbc1010f2	-0.008793103
100	0xbe30811e	-0.17236754
101	0xbdd35a94	-0.10320011
102	0xbe67aa0a	-0.22623459
103	0xbe82325a	-0.2542904

fc.0.bias f4 [4]
0	0x3eb0947d	0.34488288
1	0xbd95e20c	-0.07318506
2	0xbdb9f1c0	-0.09079313
3	0xbd8c7e08	-0.06859976

fc.2.weight f4 [4, 4]
0	0xbc7b0f10	-0.015323415
1	0xbe0d240f	-0.13783287
2	0xbab48da5	-0.0013775124
3	0x3e89ec33	0.26938018
4	0xbdc3c7eb	-0.09559616
5	0xbe6739e8	-0.22580683
6	0xbe567033	-0.20941238
7	0x3ec9e7a6	0.39434546
8	0xbee76543	-0.45194444
9	0x3eb6c96c	0.35700548
10	0x3ebacbc1	0.36483577
11	0x3e8cafe9	0.2747796
12	0x3f2185d3	0.63094825
13	0x3e226d27	0.15861951
14	0xbd0d78d7	-0.03453907
15	0xbe1f2fc0	-0.15545559

fc.2.bias f4 [4]
0	0x3e4713f0	0.194412
1	0xbc6f7425	-0.014615093
2	0x3de7589f	0.112962
3	0x3ee169c9	0.4402602

fc.4.weight f4 [4, 4]
0	0x3e177d82	0.14793971
1	0x3ea026a1	0.31279472
2	0x3e0c54a7	0.13704167
3	0xbe2fa73e	-0.17153642
4	0x3d224d3b	0.039624434
5	0x3b2f6891	0.0026765207
6	0xbe894977	-0.26813862
7	0xbef927fb	-0.48663315
8	0x3ebf4617	0.37358162
9	0xbe774305	-0.2414666
10	0x3ec55094	0.3853804
11	0x3e86798b	0.26264605
12	0xbec16637	-0.37773296
13	0xbd17d2e8	-0.03706637
14	0x3ec63ff9	0.38720682
15	0xbeaa69cf	-0.3328385

fc.4.bias f4 [4]
0	0x3f14bdd9	0.58102185
1	0x3db6cc19	0.08925647
2	0xbeb7c212	-0.3589025
3	0x3cf2bb77	0.029630406

fc.6.weight f4 [1, 4]
0	0xbf019c51	-0.50629145
1	0x3f8681d3	1.0508369
2	0x3f720fa7	0.94555134
3	0x3f8250cb	1.0180906
