model/saved/best_model.pt (torch, 229026 bytes, 73 tensors)

fc1.weight f4 [32, 407]
00000000: 1200 d838 abaf bbbc 11f0 7d3c df74 003d
00000010: 10e5 453d a43c 55bc f926 32bc 6ae8 103a
00000020: 1bb3 7fbc 1ed9 fa3c ec65 213d 5a4f 633d
00000030: bef0 fc3c 8b89 b9bc a307 9b3b 1039 983c
00000040: 8fc0 0dbc d5c6 703c ea83 b7bc 2fe1 35bc
00000050: 8153 bebb 9114 043d 3499 2d3a 45ac 3b3c
00000060: 9c61 d9bb 0b53 e33b 0a2a f03c f0b0 92bc
00000070: fa8c 383b 3ac1 b23c 0758 123d 7d8a f6bc
00000080: fa2a 093d b69c bd3c 3168 e2bb 12f7 8dbc
00000090: b2a5 4cbb e43d 153d 1e28 0d3d 4ac9 19bd
000000a0: 09f0 843b cc22 0bbc 8003 4e3d d42e 033d
000000b0: 13f8 bb3c 0ef1 e4bb 6da9 95bb d59d 223d
000000c0: 3db1 203d 3c49 813c 7efc 923c b910 14bd
000000d0: ce58 833c abd0 94bc 0842 50bb dfe5 33bc
000000e0: fe12 ec3c 161e 13bd 7c2d 45bc 9c3a 7f3c
000000f0: f82d 3a3c abd8 f13c 5b65 353d 491c 2b3a
00000100: 9c58 d3bc 2d7e 003d 3d44 393d 9751 163d
00000110: 5228 70bb bda8 d6bc c152 96bc 69a3 41bc
00000120: 1987 9a3b 2dd5 533d f1dc cc3c 6dce d73c
00000130: 6dfd 4f3c 561b 693c ee28 e7bc b728 5dbc
00000140: d35f fdba bef8 e83c 6bd8 2c3d fdf4 8f3c
00000150: 0a69 143d bfd6 623b a5c6 9c3c 8a70 55bc
00000160: ad05 2a3d b534 fc3c 81a6 373d f27d b93b
00000170: 9773 1f3d 77bb debb 72e6 2bbc 7bc2 53bc
00000180: 34f9 033d 5a6e d8bc 16c7 98bc 97bb 9bbc
00000190: b0ba 103b 2060 0a3d 02e1 e03c c18c b53c
000001a0: 5d4f 34bc cf72 af3c 1fd6 79bb 09c5 3e3c
000001b0: 49d0 42bb 4b5d efbb ee33 dd3c ab39 fb3b
000001c0: 1a77 c3bc 2d41 5cbc ae9d 0c3d 1c62 7ebc
000001d0: 8ce0 07bc a66e 593c cd3a dcbc 78d1 193d
000001e0: 2a9e febc 9243 043d a33c 4cbc 63e2 283b
000001f0: 7f9b 79bc 2d61 e73c cd0b 233d 49cc aabc
00000200: 466c 923c 8c22 cabc 65c1 653c 9207 363d
00000210: 6532 ffbc 46aa 333c 18a7 96bb f25c 4d3c
00000220: 8733 f2bc fb35 6b3d feb0 4f3c 489a acbb
00000230: bb6e a63c 9008 f03c 37af 5fbc acc1 c0bb
00000240: 2dfb 143c 00e6 493d aab2 e1bc e60b e23c
00000250: 9070 12bd eff4 c3bc d187 64bc aad0 413d
00000260: 772f bebc 037a f33b 54f5 1e3d 2bdc c13a
00000270: 9d1d 1d3d 7dd5 9c3c ed47 d23b 1f6f 833c
00000280: 74b8 ab3c 11e5 633d 97aa f5bb 4c9b c13a
00000290: 0800 083b c7b4 78bc 7b91 953c 9c73 503d
000002a0: 9523 fcbc 0f32 14bd 3c20 2d3b 6319 2c3d
000002b0: 8ef1 503d f906 493c 3107 6a3c 65c0 183c
000002c0: fa98 c3bc 6937 c3bc c241 f3bc 3c62 cd3c
000002d0: f00f bbbb f3f4 233d fab2 c0bc 1bb7 6cbc
000002e0: cbde 3b3c 8324 193c 4bb3 743c 17b0 6a3c
000002f0: 8e27 d83c 0beb 133d fd4a 223d 99fc afbc
00000300: d60d 043d cf46 20bb 8f38 143d c73b e13b
00000310: 8813 463c c0fd b23c 2cfb b43c 9993 a2bc
00000320: 6646 423d 4226 0fbd 7ee2 5dbc 2735 f9bb
00000330: 2b17 4b3d c6ff e33c 2d0e 9e3c ad57 c23c
00000340: 0585 3abd f154 bf3c c2b8 7fbb cd4d 8d3c
00000350: 80ed 42bc 284b 3cbc dbf8 073d a60a 19bd
00000360: 9202 cdbc 3128 46bc 1f8c 29bc d451 293c
00000370: b363 b33c 439f b8bc 92b5 c2bb 8ce8 18bd
00000380: 4826 07bc bb21 8abc d4c8 6cbc 57b7 ccba
00000390: 9d5f 68bd e7d1 013c 120f 093d dd16 633c
000003a0: 629d 9a3c aeac 47bd 6c2b 923c da4c b5bc
000003b0: f05c 6dbd 0700 20bd 819f 9cbb 114b 98bc
000003c0: 7fc0 40bb 8b07 733c 819e 07bd c387 5ebd
000003d0: 444b 3fbd 9239 953c 8776 913c 69d7 1c3d
000003e0: 4471 41bd 06dc 3dbd a2c2 6f3c fc67 c63c
000003f0: a77b 813c 4f80 c33c 778f 743c 6b33 093d
0.00010299696 -0.022910913 0.015499131 0.031361457 0.048314154 -0.013014946 -0.01087355 0.00055277965
-0.015606667 0.030621108 0.03940384 0.055495597 0.030876514 -0.022648593 0.004731135 0.018581897
-0.008651867 0.014695843 -0.022401769 -0.011101051 -0.0058082943 0.032246176 0.00066222553 0.0114546465
-0.0066339504 0.0069373897 0.02931692 -0.017906636 0.00281602 0.021820653 0.03572848 -0.030095333
0.03348825 0.023146015 -0.0069093932 -0.017329726 -0.0031226692 0.036435977 0.034462087 -0.03754548
0.0040569347 -0.008492183 0.050296307 0.03202708 0.02294544 -0.006986744 -0.0045673163 0.0397013
0.039231528 0.015781991 0.017942663 -0.03614876 0.016033556 -0.018165907 -0.003177764 -0.0109800985
0.02881765 -0.035917364 -0.01203477 0.015577938 0.011363499 0.02952226 0.044286113 0.0006527347
-0.025799088 0.03137033 0.045231093 0.036698904 -0.0036645127 -0.026203508 -0.018350007 -0.011818745
0.004715812 0.051716972 0.025007697 0.026343549 0.012694699 0.014227709 -0.028217759 -0.013498477
-0.0019330926 0.028438922 0.04219858 0.017572874 0.036232986 0.0034612862 0.01913769 -0.01302732
0.04150932 0.030786851 0.044836525 0.005660766 0.038928594 -0.00679725 -0.010491954 -0.012924786
0.03222008 -0.026419807 -0.01864962 -0.019010348 0.002208393 0.03378308 0.027451042 0.022161843
-0.01100525 0.02141705 -0.003812201 0.0116436565 -0.0029726198 -0.0073048226 0.027002301 0.0076667867
-0.023860503 -0.0134432735 0.034330063 -0.015526321 -0.008293282 0.01327101 -0.026883507 0.03755328
-0.031081278 0.032291003 -0.012465629 0.0025769703 -0.015234827 0.02824458 0.039806176 -0.020849364
0.017873894 -0.024674676 0.01402316 0.044440813 -0.03115196 0.010965889 -0.004597556 0.012534367
-0.029565586 0.057424527 0.012676476 -0.005267415 0.020316472 0.029300958 -0.013652614 -0.0058824625
0.009093088 0.04929161 -0.027551014 0.027593564 -0.03575188 -0.023920504 -0.013948397 0.04731814
-0.023215992 0.0074303164 0.038808182 0.0014790347 0.03835832 0.019144768 0.0064172656 0.016044198
0.020961978 0.055638377 -0.0074971425 0.0014771014 0.0020751972 -0.015179819 0.018257847 0.050891504
-0.030778686 -0.036180552 0.0026416918 0.0420164 0.051011615 0.012269729 0.014283941 0.009323214
-0.023876656 -0.023830133 -0.029694442 0.025071256 -0.005708687 0.040028524 -0.023522843 -0.014447953
0.011466692 0.009347084 0.014935325 0.01432421 0.026386049 0.036112826 0.039622296 -0.021482753
0.032239757 -0.0024456268 0.03618675 0.006873581 0.012089618 0.021849513 0.022092424 -0.01984577
0.04743042 -0.034948595 -0.0135427695 -0.007605213 0.04958264 0.027831923 0.019293869 0.023723448
-0.045537014 0.023355933 -0.0039020036 0.017249012 -0.011897445 -0.011492528 0.03319631 -0.03736367
-0.02502564 -0.012094543 -0.010348349 0.010334451 0.021898126 -0.02253688 -0.005942055 -0.03733115
-0.008248873 -0.016861787 -0.014452178 -0.0015618604 -0.05673181 0.00792358 0.033461638 0.0138604315
0.018873874 -0.048748665 0.01784297 -0.022131372 -0.05794996 -0.039062526 -0.0047797565 -0.018590482
-0.0029411612 0.014833341 -0.033110145 -0.05432869 -0.04670264 0.018215928 0.017756714 0.03829137
-0.04722716 -0.04635241 0.014633806 0.024219505 0.015806032 0.023864893 0.014926783 0.0334963

fc1.bias f4 [32]
00000000: 3ffa 3c3d e197 263c 777a 08bd b7ea 65bd
00000010: 4e4b febc a0eb 013d 0954 c9bb 7508 07bd
00000020: 99c4 2abd 8ffe 4cbc 13cf 3ebd a774 1f3d
00000030: 8dfe 03bb 240c cd3c 8e03 3b3d d312 9f3b
00000040: 2ed7 243d a2a4 42bd ae00 8c3c 0b93 38bd
00000050: d737 d23b db5d 8a3c 848c db3a d6af 2cbd
00000060: a385 123b 4285 163c 8e3c bfbc 57c0 1bbd
00000070: 1744 b5bc ca70 873b 7e25 003d 4ede 173c
0.04613709 0.010168047 -0.033319917 -0.056132045 -0.031041767 0.03171885 -0.006144051 -0.03296705
-0.041691396 -0.012511863 -0.0465842 0.038929608 -0.0020140738 0.025030203 0.045657687 0.004854539
0.040244274 -0.047520287 0.017090168 -0.045062106 0.006415348 0.016890457 0.0016750251 -0.042159878
0.0022357486 0.009187045 -0.023344304 -0.038025226 -0.022127194 0.0041333186 0.031285755 0.00926931

sparse.shared_expert.0.weight f4 [32, 32]
00000000: f822 863d d29a b2bc e7ba 033e aad6 debc
00000010: 1681 d5bd 90bf 293d 6590 d63d 34f5 0b3e
00000020: d3f9 e4bc 9beb 073e cbde 0bbd fbb3 bdbd
00000030: 5884 6c3d 0574 aebd ecc5 debd 3d3e 0b3d
00000040: 4570 353e 5c67 a03d 0960 e8bd fb54 17be
00000050: 0dd2 03be 883c 2e3e b3c7 313e 17b2 a73d
00000060: e323 003e 561d eb3d 8f2f 1abe ccea 1cbd
00000070: 69fd 933c 493a 0bbe ce38 20bc c265 943d
00000080: ee83 03be f4e9 123e 1059 973d 314e 5f3d
00000090: 9968 d63d a6b4 f33d acb8 15bd 4169 713d
000000a0: 42cd 8bbb a768 a03d 70cf 2cbd 2268 373e
000000b0: edeb 14be 7971 cfbd 7d88 90bd 0014 113e
000000c0: 2a48 13be 0071 bb3d 0bab 22be 96fe 9dbd
000000d0: f563 e73d 24f8 283d 7ea1 1abe 8dd5 03bd
000000e0: 661b 25be b35f c53d 626a b8bd 3f50 c5bd
000000f0: 5d42 db3d ac60 7fba 8b3a 2c3e 9444 373e
00000100: f053 273e d4b5 213d 361b 87bd 048b 12be
00000110: 2be0 cf3d 1ec9 3dbd b6c5 113e df62 c83d
00000120: df97 2b3e a353 013d 771f 1dbe 8d3f 923d
00000130: 3250 59bd c231 8a3d ea38 7dbd b1f8 d4bd
00000140: 3bac f0bd ee9d fcbd a7be 853d ba5f 6f3c
00000150: 27a0 b43d 2315 ed3d 189e bdbc dcb8 e7bd
00000160: dd5d 173d ea3c c7bd fb03 d03d 1490 f4bd
00000170: 9855 1fbe bdcd 8bbb 3a35 95bd 571c e6bb
00000180: d076 a73c 1b52 73bd 1d6f 4b3d d1aa 07bd
00000190: 6bb0 833d 779a 073e 1b7c 0dbe 4b09 a83d
000001a0: 6451 0e3d d8ce 223e 6f21 05be b842 efbc
000001b0: acf5 0dbd c4b9 e33b 0c04 013e f0a1 ca3d
000001c0: 8442 23bd 28c0 b2bd 99e8 4f3d a4eb ee3d
000001d0: 4dba 00bd a7aa f63d a97f 3dbe 2725 f2bd
000001e0: e986 4a3c 0cee 2abe c6c5 b23d ef68 d63d
000001f0: b1d6 a3bc 5fce 8dbd adda 0dbd 209c 0abe
00000200: 10e2 323d b5d8 0a3d 274b a63d d265 f0bd
00000210: 5efd a43d 479f 27bd d1e9 33be 0380 2fbe
00000220: f791 1f3e 8854 94bd d7c3 ebbd 574d 1c3e
00000230: 1211 6dbd f62a f5bd c0e5 2d3d 5921 7cbd
00000240: caf8 44bd fbd4 ebbd 909e 97bd 6ff3 15bd
00000250: 11e7 a73d 0e6d b4b9 b855 3ebe 46d5 923d
00000260: 94cf 113e e619 e4bd 1c4c fc39 0382 cb3d
00000270: 50ba b63c 265b a0bd 3ce2 fe3d f126 d13c
00000280: 88c0 ffbd b72c 2bbc 1374 ff3d 06a3 3bbd
00000290: 9726 033d a6b6 bd3d 9215 19bd 6bf1 4ebd
000002a0: bbd7 7d3c baf7 bfbc 318e 98bc 2278 3fbe
000002b0: 5d69 0abe b9b4 f0bd aa35 2e3d 9706 cabd
000002c0: 0ca2 153e 5413 abbd 432a 6d3c dc99 463d
000002d0: b945 673d 7628 f63c 3cf7 70bc b342 a93d
000002e0: 6809 3cbe 1d7e ee3d 5f56 25bd 1de2 3e3d
000002f0: a5a9 2dbe b6e7 243e a6dd ab3d 9f8f 813b
00000300: aa02 e33a c78d 9b3d 7baf 43bd 905c 933d
00000310: fa58 c63d 6a0f 8bbd c99f a3bd 24f3 3fbe
00000320: 982e 103e fe89 b73d baba e0bd fd79 103d
00000330: 370d f7bd 5d0f 11be 00bd 023e 7fd6 c93d
00000340: f834 253e e282 22be 42da 07bd 07c6 1ebe
00000350: e0de 18be 12fa 8bbd 9d43 08be bd0d f6bd
00000360: 2c34 acbc b20d 023e 1dd0 e7bd 39f6 d73d
00000370: 0ea6 263e 1982 13be 6b95 6ebc e50d d73d
00000380: 52c2 4e3d b1f7 5ebd b0d7 a63c fff5 2bbc
00000390: 111c 24bd c703 233e 2a34 c7ba fd28 cabd
000003a0: d393 e33d 872f 52bd aa7e 99bd 7df6 9ebd
000003b0: 8e80 d8bd becc 03be 847b 823c e824 debc
000003c0: 0685 c73d ec3b 313d 540d 00bc c541 d83d
000003d0: 9b4a dcbb 5a9f 533d 4372 aabd b27c abbd
000003e0: 9d49 a9bd 2d0e 93bd 20a3 77bd 2824 f9bd
000003f0: 77f8 053d d9e5 06bd 91e7 073e d07c fdbd
0.065496385 -0.02180234 0.12864266 -0.02720197 -0.10425012 0.041442454 0.1047676 0.13667756
-0.027951157 0.1327347 -0.03414802 -0.09262844 0.0577434 -0.08518223 -0.10877594 0.033994902
0.17718609 0.07832214 -0.11346442 -0.14778511 -0.12873097 0.17015278 0.17361335 0.08188265
0.1251369 0.11480205 -0.15057205 -0.038309857 0.018065171 -0.13596453 -0.009779168 0.07245971
-0.12843296 0.14347059 0.07390034 0.05451793 0.10469169 0.1189969 -0.03655307 0.05893827
-0.004266412 0.07832461 -0.042190015 0.17910817 -0.14543124 -0.10129065 -0.07057283 0.14167786
-0.14382997 0.091524124 -0.1588556 -0.07714574 0.11298362 0.04125227 -0.15100667 -0.03218608
-0.16123733 0.09637394 -0.09004666 -0.09634446 0.10706017 -0.0009741883 0.16819207 0.17897254
0.16340613 0.039480045 -0.06596987 -0.14310843 0.101501785 -0.04633438 0.14235577 0.09784483
0.16757153 0.031573903 -0.15344034 0.071410276 -0.053054996 0.06747772 -0.061821856 -0.103989966
-0.117516 -0.1233481 0.06530505 0.014610225 0.08819609 0.11576297 -0.023146674 -0.11314556
0.03695475 -0.09728415 0.10157009 -0.11941543 -0.15559995 -0.0042664693 -0.07285543 -0.0070224213
0.020442396 -0.059404474 0.049666513 -0.033121888 0.064301334 0.13242517 -0.13816874 0.082048975
0.03474559 0.15899217 -0.13001035 -0.029206619 -0.03465812 0.006949635 0.125992 0.098941684
-0.039858356 -0.08728057 0.05075893 0.11666039 -0.03142767 0.12044268 -0.1850573 -0.118234925
0.012361267 -0.1669237 0.087291285 0.10469233 -0.019999834 -0.06924128 -0.034632374 -0.1353612
0.04367262 0.033898074 0.08119803 -0.11738171 0.080561385 -0.040923383 -0.17569663 -0.17138676
0.15583025 -0.072426856 -0.11511963 0.15263878 -0.057877608 -0.11971085 0.042455435 -0.06155524
-0.048088826 -0.11515232 -0.0740329 -0.03660911 0.08198369 -0.00034413527 -0.18587387 0.07169585
0.14239341 -0.11137752 0.0004812189 0.09936907 0.022305638 -0.07829885 0.124454945 0.025531264
-0.12487894 -0.010447673 0.12473311 -0.04580977 0.032019224 0.09263353 -0.037374087 -0.050523203
0.015493329 -0.023433555 -0.01862249 -0.18698171 -0.13516755 -0.1175322 0.042531647 -0.09864538
0.14612597 -0.08353296 0.014475408 0.048486575 0.056462977 0.03004859 -0.014707383 0.08264675
-0.18362963 0.11645148 -0.040365573 0.046602357 -0.16959246 0.16104016 0.083918855 0.0039538885
0.001731952 0.07595401 -0.047774773 0.07195389 0.0968494 -0.067900494 -0.07989461 -0.18745095
0.14080274 0.08961867 -0.10973115 0.035272587 -0.120630674 -0.14166017 0.1276741 0.09855365
0.16133487 -0.1587024 -0.03316713 -0.15505229 -0.1492877 -0.068348065 -0.13307042 -0.12014339
-0.021020971 0.12700537 -0.11318991 0.1054501 0.16274282 -0.14405097 -0.014561991 0.10500697
0.050478287 -0.054435436 0.02036652 -0.010495662 -0.04006583 0.1591941 -0.0015198041 -0.09871099
0.111121796 -0.051314857 -0.074948624 -0.07761858 -0.10571395 -0.12871072 0.015928037 -0.027117208
0.09742169 0.043270037 -0.007815678 0.105594195 -0.006722761 0.05166564 -0.08322575 -0.08373393
-0.08265994 -0.07180438 -0.060458302 -0.121650994 0.032707658 -0.032934044 0.1327193 -0.12377322

sparse.shared_expert.0.bias f4 [32]
00000000: a926 3a3c e1fe 05be 08bc 01bd ecb3 35be
00000010: ed93 abbd e669 0cbe f24f 89bc b4ab 023e
00000020: 3b43 2ebe 513e 81bd f66a b13c c67b d6bd
00000030: 153a 9bbd 16ec d43d 059f 96bc 1547 e2bc
00000040: 531c d9bd 6290 0d3e b4e5 193e 616c 223d
00000050: afb6 bb3d 2ee9 e4bd 1d58 133e 2d4c 803d
00000060: 7d3f 1a3d c2af 36be e9e6 113e aa13 2fbc
00000070: 050b 553d 60bf 44bd 6069 343e c4d0 cc3d
0.011361756 -0.1308551 -0.03167346 -0.17744416 -0.08377824 -0.13712272 -0.016761754 0.12760812
-0.17017834 -0.06310714 0.021657448 -0.10472827 -0.07579438 0.10396592 -0.018386373 -0.027621785
-0.106011055 0.13824609 0.15029031 0.03965414 0.091657035 -0.11177288 0.14389081 0.062645294
0.037658203 -0.17840484 0.14248241 -0.010685841 0.052012462 -0.048034072 0.17618322 0.100007564

sparse.routing_experts.0.layers.0.0.weight f4 [32, 32]
00000000: 4c9d c13d 8a57 ccbd d449 113e fc82 583d
00000010: 97ad ca3c 67b5 503d 9b4e 06be 7db7 c4bd
00000020: a07a c93d a9ed 2b3d a51f 0abc 900a 1a3e
00000030: 6816 cdbc 6a63 9b3d fba9 8dbd c499 2b3e
00000040: c744 bf3c c9c1 393d bce2 793d cc2f 07be
00000050: 4341 333e c37a 553d 9372 13bc c204 c33c
00000060: e1ca 1cbe d776 40bc 2804 2fbd 5345 4b3d
00000070: 53e6 26be dd62 d8bd a484 28be d348 2e3d
00000080: 16f3 a2bd 6ef8 173e 5ea7 1bbe 7b67 2f3e
00000090: 57fa 8b3d 8135 1cbe 27c5 cbbd 09e4 2a3e
000000a0: cc85 febd 4fa1 d0bd 9485 1c3e e71b 83bd
000000b0: 99a8 a93c 16bc 34bd f9a7 20be bcff 96bd
000000c0: df50 963d 6204 65bd 63e4 dbbd 9fdb 1a3e
000000d0: 5913 343d 5472 303e 7272 f33d d3e4 bcbd
000000e0: 55c1 ac3d 6727 103d 5e49 04be 4590 f8bd
000000f0: d714 d93d 3f21 babb e008 ac3d 086e 283e
00000100: fe17 113e cfbb a5bd 7978 03be 285b 7e3d
00000110: 4390 05be b203 eabd ab53 07be dd39 cb3c
00000120: 160f 28be 1485 a23d ecd7 ce3c c91b ea3c
00000130: a4e1 ee3d d3ba bfb9 bcf3 1abd eed9 a03d
00000140: 5ab3 043d 7888 86bd 937f 113c c22d 09be
00000150: dcf9 4ebd 87d8 e2bd 3bd7 10be 3337 163e
00000160: 8327 04be 93b4 043e c288 16bc 9b12 aa3d
00000170: 7ebd 063e 275a cc3d ce3c 223e 0f15 0c3e
00000180: a6c4 32be 64fb 16be 82ff 37be 92e6 b93d
00000190: 389d 993d 3209 82bd 0e67 ac3d 684a 87bd
000001a0: 0532 903d 6308 453d dd8e 64bd 746b 863c
000001b0: eabf e53d d1bf fb3d 7877 dabd 83d7 d53d
000001c0: 7c20 d3bc 5de0 eabd 7833 3cbe 9d43 05be
000001d0: 9036 983d f0c7 3dbe a90d 89bd 2309 e0bd
000001e0: 0636 c1bd f559 043e 410c 3abe 5bdb 06be
000001f0: 530c b0ba 3f2b 70bd 0a6c 963c 1ef0 04bd
00000200: d3e3 be3d 8b15 853d 9073 7d3d 8ed4 43bd
00000210: 45cd 8f3d 913c bdbc 8e1b c5bd 638e cc3d
00000220: 36c5 bb3d 88f6 06be a272 23be a2dd 1ebe
00000230: c4ca 903d 7649 913d 0561 a63d c35b 10bc
00000240: f66b 8fbd 4741 893d ac43 dabd f035 98bc
00000250: 4b90 acbd faf1 c73d f2e1 29be b4eb a4ba
00000260: 1e65 923d bb99 c03d 06c5 8a3d 2724 ae3d
00000270: 1478 f6bd b41f 1dbe 184e 173e ad07 133e
00000280: c557 fb3d 57f9 24bc f9e9 11bd 4dfc 263c
00000290: e133 49bc 1cbe 24be 1d98 11bc 0f0c f7bd
000002a0: 048d 803d 9a6e b13d d391 2a3c 2649 003b
000002b0: 63ab d8bd af60 21be 98e2 18be 38af 223e
000002c0: 0e0b fabd a329 98bd 9dbb d03d 4f33 02be
000002d0: d352 62bd 605e f73d 806c 34be e941 6d3d
000002e0: 989b a13d 416e 713d b05d fb3d 7e02 1dbd
000002f0: bcae 023b 40b9 d4bd 1680 21bd 6461 813d
00000300: dc75 823c a0c3 9fbd 8830 c3bd 396f 15be
00000310: 408a 34be 90f7 70bd f323 d7bd c7c0 b9bc
00000320: 0dc0 093d 087f 143e 8898 1dbe f496 ba3d
00000330: d1d9 29be 6b37 08be df34 043e 20e9 cdbd
00000340: 4c6e 8fbd 6612 003e 14d8 2a3e 8a08 e6bd
00000350: bd50 1bbc dadb f7bd aae6 8cbd 30cf c3bd
00000360: b4b5 09be ce83 86bc 8a98 c3bd 2785 6cbd
00000370: d96b cf3d b526 d43d b108 80bd 0c7c 75bd
00000380: bbcf 0ebe dcd4 1a3d 163d 16bc 00d5 9abd
00000390: 96e2 fcbd 0d86 b7bc ec5c 7c3d 9787 eb3d
000003a0: fbe8 62bb 3617 0e3e 5bad 97bd c27a 1abd
000003b0: 0366 f93d 73fa 02be 2b9a f03b 09bb 2cbe
000003c0: 3b66 033e 3532 b83d b27b 923d 4bcd 81bd
000003d0: 081d 253e 9d01 e2bd d98f 1fbe 8285 84bd
000003e0: fe24 10be 898b 71bd c514 ccbd ae5a 02be
000003f0: 49ae 343d 6ccf 86bd 58a8 9fbd 5d17 95bd
0.0945383 -0.09977634 0.1418832 0.05285929 0.024740977 0.05095425 -0.13115923 -0.0960531
0.09837842 0.041974697 -0.008430396 0.15043092 -0.025035098 0.07587321 -0.06917187 0.16757876
0.023348225 0.045350824 0.061007246 -0.13201827 0.17505364 0.052119028 -0.008999485 0.02380598
-0.15311767 -0.011747084 -0.042728573 0.04962666 -0.16298799 -0.10565732 -0.16456848 0.04254992
-0.07956521 0.14840862 -0.15200564 0.17129318 0.06834858 -0.15254785 -0.09949713 0.16688551
-0.124278635 -0.10187017 0.15285331 -0.06401806 0.020710276 -0.044124685 -0.15689076 -0.07372996
0.07339644 -0.055912383 -0.10736921 0.15122841 0.043963764 0.17231113 0.11887063 -0.09223332
0.08435313 0.035193827 -0.12918612 -0.12136892 0.10599678 -0.005680233 0.0840013 0.16448224
0.14169309 -0.08092462 -0.12838925 0.062098652 -0.13043313 -0.11426486 -0.1321551 0.024807865
-0.16412005 0.07935539 0.025249444 0.028577702 0.11664131 -0.00036569554 -0.0378301 0.07854067
0.032397605 -0.06568998 0.008880514 -0.13396361 -0.050531253 -0.110764556 -0.14144604 0.14669494
-0.12905698 0.12959509 -0.009187879 0.0830433 0.13158223 0.09978133 0.15843508 0.13679908
-0.17457828 -0.14744335 -0.17968562 0.09077181 0.0750069 -0.0634941 0.084180936 -0.06605989
0.070407905 0.0481037 -0.055800308 0.01640866 0.11218245 0.122924455 -0.10667318 0.10441496
-0.025772326 -0.11468575 -0.18379009 -0.13014074 0.07432282 -0.18533301 -0.066920586 -0.10939243
-0.09434132 0.12924941 -0.18168737 -0.13169615 -0.0013431407 -0.058634993 0.018362064 -0.032455556
0.09320798 0.064982496 0.061877787 -0.04781013 0.07021574 -0.02310017 -0.09624396 0.099880956
0.091684744 -0.13179982 -0.15961698 -0.15514234 0.070699245 0.0709409 0.08123974 -0.00881094
-0.07003014 0.06701904 -0.10657439 -0.018580407 -0.08425959 0.0976295 -0.16590098 -0.0012582452
0.07148193 0.09404322 0.067758605 0.08502989 -0.12034622 -0.15344125 0.14775884 0.14358397
0.122726 -0.010069213 -0.035623524 0.010191989 -0.012280435 -0.16088146 -0.008886364 -0.12062847
0.062768966 0.08663674 0.010410744 0.001957485 -0.105795644 -0.15759538 -0.14930189 0.15887153
-0.1220914 -0.074298166 0.101920344 -0.12714885 -0.05525477 0.120785475 -0.17619514 0.057924185
0.07891005 0.058943037 0.12273729 -0.038332455 0.0019940576 -0.10386896 -0.039428793 0.06317404
0.01592534 -0.078009844 -0.09530741 -0.1459321 -0.17630863 -0.058829844 -0.10504904 -0.022674931
0.03363042 0.14501584 -0.15390217 0.09110823 -0.16586997 -0.1330239 0.12910794 -0.10054231
-0.07003459 0.12507018 0.1668399 -0.112320974 -0.009479699 -0.1210248 -0.06879933 -0.09561002
-0.1344822 -0.016420271 -0.09550579 -0.05774417 0.10127992 0.10358945 -0.06251658 -0.059932753
-0.1394643 0.037800655 -0.009169837 -0.07560158 -0.12347905 -0.022402788 0.061612055 0.11500471
-0.003462373 0.13876042 -0.07406112 -0.037714727 0.1217766 -0.12790851 0.007342597 -0.16868223
0.12831967 0.08993951 0.07152499 -0.06337985 0.16124356 -0.11035464 -0.15582217 -0.06470777
-0.14076611 -0.05897096 -0.09964899 -0.12729904 0.044111524 -0.06582531 -0.07795781 -0.07279847

sparse.routing_experts.0.layers.0.0.bias f4 [32]
00000000: 46c6 633d 828c ae3d 1067 c9ba 2280 123e
00000010: cbe3 9b3d f8bb 2b3e 550a 37be 1933 193e
00000020: 6132 95bd e952 88bd 316c 06be 35f8 083d
00000030: 52d9 063e f3e0 dcbd 8f8e 6a3d d805 08bd
00000040: 75ea 383e 2cc5 37bc b746 2ebd c4c1 1e3d
00000050: 976f 9fbd 90d1 f53d 7abf 043e a873 203e
00000060: 4b7e 98bd 6a73 fdbd 65af e6bc ee38 d4bc
00000070: f3ed 713c ecf5 f1bd e732 bbbd 3fb8 0bbe
0.05560901 0.085228935 -0.0015365798 0.14306691 0.076118074 0.16770923 -0.17875035 0.14960898
-0.07285 -0.06656439 -0.13127209 0.033439834 0.13168839 -0.10785093 0.05726486 -0.033208698
0.18058188 -0.011216443 -0.042547908 0.038759008 -0.07784956 0.120028615 0.12963668 0.1566912
-0.074459635 -0.12375529 -0.028159807 -0.025906052 0.014766204 -0.11814484 -0.09140568 -0.13644503

sparse.routing_experts.0.layers.1.0.weight f4 [32, 32]
00000000: cea8 50bd 0a9e 8dbd efad 20bd be48 0bbe
00000010: 8ab3 14be 29dd db3d cc63 193e 6d06 483d
00000020: 248f 833b 3b31 ebbd 6472 563b 16c6 1e3c
00000030: d381 263e f3f7 f43d 2693 193e a2c6 9b3c
00000040: 5317 09bd 20fd 88bd cfac 243e a9bb 48bd
00000050: 2b9f 27bd 38e7 033e 185f 42bd 8b46 f6bd
00000060: 4430 223d 43a0 1bbe 7c35 d23d 1684 203e
00000070: bd44 143e 367c b6bc 84aa 7b3d a237 b73d
00000080: ba20 833d b5fb 21bb 00bf bcbd c743 063d
00000090: a6bb c93c ef61 00be 13d6 01be 2b67 d23d
000000a0: 520d 5f3c 534e 0bbe ae91 503d b088 893d
000000b0: c290 06be b94a 9ebd 6db1 933d 8376 94bc
000000c0: ecc0 a9bd b471 e13a 77d7 1d3e 2f76 a6bd
000000d0: 2d9c afbd e783 b43d 5cab 0c3e 44ea 52bd
000000e0: cf99 91bd 3f1c f03d 9967 273d b2ef 68bd
000000f0: 1f87 113e bebd 383e ed48 a7bb 0ccc 2e3e
00000100: 31c5 f63d 0faf 833d 9abd 123e 7f62 74bd
00000110: 8e43 b43b 63b1 23be 73d7 07be 8573 24be
00000120: 87b7 373e d997 0f3d cba0 183e 03e6 88bd
00000130: 0c8f 493d cd96 313e 4584 003e 4564 72bd
00000140: c9c6 13bd aa5c 333d 5289 22be 4c8f f8bd
00000150: 50cb 043c 8abf e43d 8d25 40bd f17b 26be
00000160: 8ef7 1dbe 3089 2ebd a8ce b1bd 4c7b 49bb
00000170: 2b6c e73d 72d6 ebbd a2e4 d9bd cee4 183e
00000180: 60fc 5fbd c287 f53b 8198 cdbd cacf ac3d
00000190: 5713 9a3d 6722 3cbd 0fff fd3c a087 47bc
000001a0: a078 b4bb f44c 003d 7b39 fd3d 8618 793d
000001b0: 3353 583d 8d8f 08be 9e4a 38be b75d e7bd
000001c0: bf65 babd 3613 3ebe 7673 15be 5a06 3f3d
000001d0: c35d 37be dd8d 6f3d bf52 973c 7018 f53c
000001e0: 02ec ec3d 987f 09be adfa dbbd 8795 e1bd
000001f0: 898f 043e bb05 c9bc 9d3c 13be f8de f93d
00000200: ba28 b2bd c5d6 823d cf29 8abc 3205 ffbd
00000210: 10b4 29be 81af 7cbd 18d9 42bd 43b0 24be
00000220: 843f d5bd e781 f63a 79bf c3bd 16e3 5e3d
00000230: d306 1a3d 316b b33b 22f2 23bc b4a4 c9bd
00000240: 8908 17bd d411 ad3d 5778 b8bc 619c 863c
00000250: f7bd 5e3d f759 053d 819a 89bd 8795 653d
00000260: 95a5 74bc e157 09bd 6de5 0d3e 7706 2dbd
00000270: 3536 183e 82a0 3f3d 21d8 84bd 6909 c9bc
00000280: aeeb 033e 10b5 95bd 92f7 06be b7c6 48bd
00000290: 6130 12be 9295 fabd 572e 5fbd 026f 1fbe
000002a0: b26d efbd b91c a0bd 66fc 9abd 3600 053e
000002b0: 1489 bf3d dec3 833d 464a 0cbe 2fb4 2d3e
000002c0: d8ca 9ebd ea47 c73d 91f3 dbbd e6a8 8d3d
000002d0: 93f4 5b3d e79e b9bd 4396 693d ed5b 753c
000002e0: 21c8 0f3d 4411 1fbe 511b 283c b237 edbc
000002f0: a3c7 963d c017 1abd c406 133e d6e3 9c3d
00000300: 0c1f f5bd e5c5 6ebd 5831 6cbd 137d 03be
00000310: ad93 1ebe 6c46 b03d 06e9 203d 0c77 3dbe
00000320: 2c3d 20be 2a9b 0ebd 783a 993d b5bb e33c
00000330: f4d3 d73d 14cb ddbd 1ea8 1b3e 1efa 1f3e
00000340: f1c3 ba3d e45c dc3b 719b 573d d51a 0e3e
00000350: ec8e 1cbe f569 33be 7cb7 093e f183 85bd
00000360: 9190 64bd 0855 e9bd bd5a 58bd 23f7 193e
00000370: 6973 33be 34df cd3d 9695 34be 08dc 10be
00000380: ecb6 ed3d 8b40 153e cbc9 963d 5904 e73b
00000390: 11da c0bd 1a49 85bd c183 adbd 84ba ae3d
000003a0: b381 3cbe 7f86 193d 2199 0d3e ff96 8ebd
000003b0: 7fc6 d83d c06d db3d 86d0 bd3d 2c41 c5bc
000003c0: 2481 6fbd 3c3c 1fbd 9db3 833c 6bb6 1abe
000003d0: 105f c0bd 09e4 143e 9a74 3ebe 9553 263e
000003e0: dffa 3dbd b2e3 e5bd f947 8fbd 393b 113c
000003f0: 6e63 c93d 2cd8 d3bd ae5a d4bd cb14 dfbd
-0.050942235 -0.06914909 -0.039228376 -0.13601968 -0.14521614 0.10735542 0.14979476 0.048834253
0.0040148664 -0.11483999 0.003272199 0.009690782 0.16260462 0.11961355 0.14997539 0.019015614
-0.03346951 -0.06688905 0.16081546 -0.04900709 -0.04092328 0.12881172 -0.04745397 -0.12025174
0.03959681 -0.15197854 0.102641076 0.15675387 0.14479347 -0.022276025 0.061441913 0.08946158
0.064027265 -0.002471668 -0.09216118 0.03277948 0.02462561 -0.12537359 -0.12679319 0.10273584
0.013614016 -0.13604097 0.05092018 0.06715524 -0.13141158 -0.07729096 0.07211576 -0.018122917
-0.0828875 0.0017200024 0.15414225 -0.081280105 -0.0857471 0.08814221 0.13737243 -0.051492944
-0.07109415 0.117241375 0.040870283 -0.056869216 0.14211701 0.18041131 -0.005105129 0.17070025
0.1204933 0.06429874 0.1433014 -0.059664246 0.005501217 -0.15985636 -0.13265781 -0.16059692
0.17941104 0.035056923 0.14905088 -0.06684496 0.049208686 0.17342682 0.12550457 -0.059177656
-0.03607825 0.043789543 -0.15872696 -0.12136707 0.008105114 0.11169346 -0.04691081 -0.16258217
-0.15426466 -0.0426113 -0.08681995 -0.0030743657 0.11299928 -0.115155116 -0.106393114 0.14931032
-0.054684043 0.0074929902 -0.100388534 0.0843807 0.0752322 -0.045931246 0.03100541 -0.012178332
-0.0055075437 0.03132339 0.12364479 0.060814403 0.05281372 -0.1333601 -0.17997214 -0.112971716
-0.09101438 -0.18562016 -0.14594826 0.046636917 -0.17906861 0.0584849 0.018472074 0.02991888
0.115684524 -0.1342758 -0.10741172 -0.11014848 0.1294538 -0.024538865 -0.14378591 0.12200731
-0.08699174 0.0638862 -0.016865639 -0.12452163 -0.16572595 -0.06169081 -0.047570318 -0.16082864
-0.10412505 0.0018807024 -0.09558005 0.054415785 0.037604164 0.0054754247 -0.010006459 -0.09845868
-0.036873374 0.08450666 -0.02251832 0.01643199 0.054380383 0.0325565 -0.067189224 0.056050804
-0.014932056 -0.033531073 0.1385705 -0.042242493 0.14864428 0.04678393 -0.06486536 -0.02454062
0.12882873 -0.073099256 -0.13180378 -0.049017634 -0.14276268 -0.122355595 -0.054487552 -0.1556969
-0.116908446 -0.078179784 -0.075676724 0.12988362 0.093523175 0.06433843 -0.13700208 0.16963266
-0.07753533 0.097305134 -0.10739816 0.069169804 0.05370004 -0.09063511 0.057028066 0.01497553
0.035102967 -0.1553393 0.010260419 -0.028957222 0.073622964 -0.037620306 0.1435805 0.07660644
-0.11968812 -0.058294196 -0.057664245 -0.12840681 -0.15486021 0.08607182 0.03928473 -0.18502444
-0.15648335 -0.034815945 0.07481855 0.027799467 0.10538474 -0.1082975 0.1520085 0.15622756
0.09119404 0.0067249406 0.052638475 0.13877423 -0.15288895 -0.17520888 0.134489 -0.065193065
-0.05580193 -0.113931715 -0.05282091 0.15035681 -0.17524494 0.10052338 -0.17635188 -0.14146435
0.11607155 0.14575402 0.07362708 0.007050079 -0.09416593 -0.06508084 -0.08472396 0.08531669
-0.18408851 0.03748178 0.13827945 -0.06962394 0.10584735 0.107142925 0.09268288 -0.024078928
-0.058472767 -0.038875803 0.016076857 -0.1510865 -0.09393132 0.14540114 -0.18599167 0.16242822
-0.046381827 -0.1122507 -0.069961496 0.008864217 0.09833418 -0.10343966 -0.10368858 -0.10892638

sparse.routing_experts.0.layers.1.0.bias f4 [32]
00000000: e211 0d3e fcf9 7c3d b176 153e d5c7 95bd
00000010: 501e 043e 90ca 0a3e 6ace 7dbb d40e 83bd
00000020: 7958 8dbd 2104 1abe e8cd 963d eca4 a53d
00000030: 7c33 9bbd cfa7 6ebc b5de d8bd 5223 163e
00000040: 6a67 783d 15df cebd f2d2 ddbc 7bca e5bd
00000050: 661e ecbc 568a 233d 6e7c e83d 67b3 2b3e
00000060: f777 08be ca41 0d3d 45a8 c03d ccca 27be
00000070: 564d af3d 2e5b 3cbe d5e6 21bd 9b2c 2a3d
0.13776353 0.06176184 0.14596058 -0.073135056 0.12902188 0.13553834 -0.0038727769 -0.063993126
-0.069016404 -0.15040638 0.07363492 0.08088097 -0.07578179 -0.014566376 -0.10589353 0.14661911
0.0606455 -0.10101143 -0.027078126 -0.11220261 -0.028823089 0.03992685 0.11351858 0.16767655
-0.13327013 0.03448657 0.09407095 -0.16385955 0.085596725 -0.18394157 -0.03952678 0.041546445

sparse.routing_experts.0.layers.2.0.weight f4 [32, 32]
00000000: d49b 00bc bfbe acbc 0752 03bd 2479 283e
00000010: 1ec1 f93d 7619 233e 8def c9bd 903f 403d
00000020: 83ef 9b3d f8a0 01bd 560f fc3d 0308 bb3d
00000030: 895d e5bd 65a4 073d cb7f 0fbe a53f c8bd
00000040: 4cd4 713c 88da 283e 4080 c5bd a858 fa3d
00000050: b088 9dbd 0be8 ec3d 2035 113e 35de a0bd
00000060: b74c 78bd 4363 f8bb f0d9 0c3e 49c1 ec3d
00000070: bc40 32bd b545 393e 7812 0a3d e308 1b3e
00000080: 2c46 293e 9f37 ddbc d7c1 0bbe 9b28 a2bd
00000090: a604 02be 88f3 343d 5131 5cbd 9c78 3b3e
000000a0: df91 60bd 005a d13d c09e d1bc 6747 a43d
000000b0: 97d7 bd3c 80ab 8c3d 03b0 7f3d 5837 a5bd
000000c0: 735c 4fbd c395 0d3e 9c4d f3bd ba4c 35bd
000000d0: b94d 9dbd b018 9bbd 6dd6 a2bd f553 0fbd
000000e0: 0c72 973d 4013 903c 4877 5e3d d5ae 253e
000000f0: 60ca 953d b322 4c3d f2c7 eebd eb7e 19be
00000100: 0289 cdbd d8dd 1abd 823a a4bd fd32 ddbd
00000110: c8a4 843d 193e 023e caef 1c3e 3e23 283e
00000120: ec7d 143e 5fdc 983d 1d59 13be 9814 29be
00000130: d66c 84bd 0db4 883d be89 2f3e f895 a63d
00000140: 6e66 ebbc 5584 01be c601 db3c fbf5 e83d
00000150: a804 9ebd 8e23 18be ac90 a23d 690a 303d
00000160: 975d aa3d 3fd7 be3d b20f 3cbd e2fd f63c
00000170: 748f ffbb 3a9c 2bbe 53d4 e7bd 8b3c 173d
00000180: e7ed ccbd 7860 0a3d 69c6 1b3e 3d89 b4bc
00000190: 0117 c0bd 33f9 64bd 44f7 36bb 86b6 73bc
000001a0: 4a1f 013e ba9a 32bd 31e9 203d 1165 02be
000001b0: e366 88bd 9836 383d 926c 14be 9447 f23d
000001c0: 89fb 82bd 6c4c 0cbe c4dc 9d3d 1d82 233d
000001d0: 31b5 e63d 76bc 193d c7ba 0b3e 266c b8bd
000001e0: 456f 903c 2667 67bc 0ed5 8dbc 389c 1e3d
000001f0: 889e 6ebd efce c9bd b17c 78bd 9623 f73d
00000200: 8622 843d e8df 093e fedc 1bbe d565 2bbe
00000210: e11d 1abe 9750 97bd 1684 2cbe c14c f63c
00000220: b891 7dbc 8c98 3fbd 1271 bdbd 1a5e 3bbe
00000230: ef0e f2bd 8f1f 2c3e 4118 1bbe 88c0 14be
00000240: ee53 a03d 02d3 4e3d efc6 32be c550 223e
00000250: a736 2c3e 96df 1a3e ef82 2bbe 786d c2bd
00000260: 7d78 8e3d 9433 dcbd e6ba e63c 1f10 0a3d
00000270: 2867 573d 3caa d7bd abb6 7bbd 5c64 ab3d
00000280: ca6d 98bd 4a1b 3bbe 66ef bdbd 2ad8 163e
00000290: 498e 163d d84f 6dbc e2a5 b63d 2bc5 25bd
000002a0: a0cd c1bd 5c62 0cbc a072 eabb 6c3d 7bbc
000002b0: 3016 953c c5ac 243e 3149 2dbd 21dd aebd
000002c0: 36b4 183c 4627 c73d db75 5b3d 5520 8bbb
000002d0: 2d5d 6fbd 558b 40bd f7a7 023d 8993 d03d
000002e0: ecab 10be da1f 20bd 68b3 943d 24cd 0ebe
000002f0: 7cc2 82bc 3f3c 163e 06ec fe3d 9e94 4c3d
00000300: d16f d33c ee6f ca3d 4272 873d f4c9 57bc
00000310: 3512 11be d203 553c 3e39 d23c 1eba 153e
00000320: 9bde a9bd 796e 693d 44ce 503d 45ab cd3c
00000330: 8196 ce3c 24b7 6d3b 816e bbbd abe7 04bc
00000340: 4262 f33d 9c43 22be cec8 983d a816 53bc
00000350: 537b fd3c c519 8bbc 62e2 f6bc b46d fdbc
00000360: 0220 f23c 4617 fbbd 58ad fc3d 02b1 35be
00000370: b29e e3bc 8ce5 f3bd d7b6 773d 0788 293e
00000380: fb63 04be 344a 1cbe 963a 863c 8771 0ebe
00000390: 739a 8bbd e331 22be b1f8 243e 0984 073e
000003a0: 93fb bd3d 2600 09be bc68 163e f0cf 90bd
000003b0: c6ab babd f186 133e 4544 ee3c e6dd 213e
000003c0: e662 233e f404 2a3e 9b9a d33d d9f9 00be
000003d0: bf64 243e f05b 8fbd 5407 193e 4237 33be
000003e0: 99c3 5fbd d679 18be 8011 52bd 4797 0abd
000003f0: 3256 1ebe 6002 be3d 7fc8 0a3e 55d4 c23b
-0.007849652 -0.021087049 -0.03206065 0.16452461 0.12195037 0.15927681 -0.09860144 0.046935618
0.076140426 -0.031647652 0.123076126 0.091323875 -0.11199481 0.033115763 -0.14013593 -0.09777764
0.014760088 0.16489613 -0.09643602 0.12223941 -0.07692087 0.11567696 0.14180422 -0.07854883
-0.060620036 -0.0075801923 0.13755012 0.11560304 -0.043518767 0.18092997 0.03370902 0.15140109
0.16530675 -0.027004061 -0.13648163 -0.07917901 -0.12697086 0.044177562 -0.05375797 0.18307728
-0.054826614 0.10222244 -0.025588393 0.080214314 0.02317409 0.068686485 0.062423717 -0.080671966
-0.050625276 0.13826661 -0.11880037 -0.044262625 -0.0768084 -0.07573068 -0.07951055 -0.034992177
0.073947996 0.017587304 0.054312974 0.16179974 0.073139906 0.04983778 -0.1165923 -0.14989822
-0.10035898 -0.037809223 -0.08018972 -0.10800741 0.06476742 0.12719001 0.15325847 0.16419694
0.1450116 0.074639075 -0.14389463 -0.16511762 -0.06466071 0.06674967 0.17142388 0.08134073
-0.028735366 -0.12648137 0.026734244 0.11375042 -0.07715732 -0.14857313 0.0793775 0.042978678
0.08318632 0.09318399 -0.045913406 0.030150358 -0.0077990834 -0.16758814 -0.113197945 0.036922973
-0.10006314 0.033783406 0.15212406 -0.022038097 -0.09379388 -0.055901717 -0.0027918378 -0.01487506
0.12609592 -0.04360459 0.03928489 -0.12733866 -0.06660249 0.04497394 -0.14494541 0.11830059
-0.06395633 -0.13701028 0.07708123 0.039919008 0.11265028 0.037533246 0.13645469 -0.09005003
0.017631182 -0.014123714 -0.017313506 0.0387232 -0.058256656 -0.098539226 -0.06066579 0.12067334
0.06451897 0.1346432 -0.1522102 -0.16738065 -0.1505046 -0.07388418 -0.16847262 0.030065896
-0.015476637 -0.04677634 -0.09250082 -0.18297616 -0.118192546 0.16808914 -0.15145971 -0.1452657
0.07828508 0.0504942 -0.174587 0.15851124 0.16817723 0.15124354 -0.16749166 -0.09493536
0.06956575 -0.10752025 0.028165292 0.03370678 0.05258861 -0.105305165 -0.061453503 0.083687514
-0.074428156 -0.18272129 -0.09274177 0.14730898 0.036756787 -0.014484368 0.089183584 -0.040471237
-0.09463048 -0.008568373 -0.0071547776 -0.015334468 0.018199056 0.16081531 -0.04230613 -0.08538271
0.009320309 0.09724288 0.053579193 -0.0042457976 -0.05843847 -0.047007877 0.031898465 0.1018439
-0.14128083 -0.039092876 0.072607815 -0.13945442 -0.015961878 0.1467142 0.12447362 0.04994642
0.025810154 0.0988463 0.0661359 -0.013170708 -0.14167102 0.013001399 0.02566206 0.1462178
-0.08294412 0.05699012 0.05097796 0.025106082 0.02521825 0.003627249 -0.09151936 -0.008111875
0.118839756 -0.15846103 0.074601755 -0.01288382 0.030942595 -0.016980061 -0.030137245 -0.0309361
0.029556278 -0.122602984 0.1233775 -0.17743304 -0.027785633 -0.11909017 0.060477104 0.16555797
-0.12928765 -0.15262681 0.016385358 -0.13910495 -0.06816568 -0.15839343 0.16110493 0.13233961
0.092764996 -0.13378963 0.1468839 -0.07070911 -0.091147944 0.14406945 0.029085288 0.15807304
0.15955696 0.16603452 0.10332223 -0.1259531 0.16054057 -0.069999576 0.14944202 -0.17501548
-0.054629896 -0.14890227 -0.05128622 -0.033835676 -0.15462568 0.09277797 0.13553046 0.005945722

sparse.routing_experts.0.layers.2.0.bias f4 [32]
00000000: 8a5b 16be 3874 5e3d f2fd 183e 5723 e5bd
00000010: 4d10 2dbe 9079 99bd d6e7 41bc 6b86 0cbe
00000020: f71e c0bc 830a c23c 6249 dcbc 9d56 153e
00000030: fe46 5ebd c800 9a3d 0596 d43d adaf 5ebd
00000040: bcf3 593c 87a9 e43d ff49 473d 416c 16be
00000050: 7827 86bd 19d2 fe39 a173 fcbd c9e6 e23b
00000060: c10d 0c3e b91c ad3d a423 cc3d ba21 80bd
00000070: 9a48 943d 7746 273d f0da 0fbe 49d8 983d
-0.14683357 0.054310054 0.14940622 -0.11188381 -0.1690075 -0.07493889 -0.011835059 -0.13723151
-0.023452265 0.023686653 -0.02689046 0.14583822 -0.054266922 0.0751968 0.103801765 -0.054366756
0.01330274 0.11165147 0.048654553 -0.14689733 -0.06550497 0.0004860319 -0.12326742 0.0069244844
0.13677122 0.08452744 0.099677354 -0.06256433 0.0724041 0.040838685 -0.14048362 0.07463128

sparse.routing_experts.0.layers.3.0.weight f4 [32, 32]
00000000: c34b 123d eaff 833d 13c9 103e 677d 82bd
00000010: 896a b3bd 0425 603d d69c 053e 5e1c 633d
00000020: 7cf2 6ebd 1778 333e c8d0 4f3d 0ad2 373c
00000030: 0310 eebb dece e03c 8c95 0ebe ed07 a23d
00000040: 2c9b a53d 3af9 803b 2ba3 15be bb25 063e
00000050: 672e 683c 17eb 213e 16a1 9b3c 0c13 323e
00000060: 776d 1abe 9797 093e 80f8 08be e830 843c
00000070: efdb bbbc 6574 e93d 273e f4bd 04ba 09be
00000080: 3fe7 ffbd e113 1c3e 578c 6dbd f2b5 1c3d
00000090: 757f cebd 27ea 6ebd de50 ccbd 5536 e33c
000000a0: 8f1c 52bd 6673 a13d 895f 603d eaea 3cbd
000000b0: d914 07bd 4e8b 443c 1819 993d 6b3f a9bd
000000c0: 086d c33d 4e62 3f3d 30b0 6dbd 8456 003e
000000d0: 7432 0b3e 9840 793d 9e62 933d e983 bf3c
000000e0: 6336 63bd 1d5a 4e3d 66d2 f13c 7635 f93d
000000f0: 009d 963b 9fd1 9bbc a5cd 06bc 42b1 033e
00000100: 165a ccbd 6f9e 733c fb91 353e 7f6d 1bbd
00000110: 1616 e93d 0b6f a03c 2707 edbd 2558 07be
00000120: 7fa5 e33d 8111 d33c 8b37 a1bd 872d 153d
00000130: 3011 08be b00b 88bc 28c8 8fbd fbf6 c6bd
00000140: d2f1 65bb 285a 5e3d 4ca8 e1bd 3e85 2fbe
00000150: c112 2bbe 109b f5bd b9b4 053d b2b1 a2bb
00000160: 3ff9 193c c70a 36bd e987 bcbd 5bd8 0f3e
00000170: b171 9abd 587d 9039 31ff 063e be77 b23d
00000180: 00c2 123d 56f3 393b 4212 2fbe 9c0a 26be
00000190: 899e 14be da02 b83d 22b6 57bd a214 d43d
000001a0: 3e6c b63d 6c73 ec3d a510 75bd 5c01 ee3d
000001b0: bad6 7ebc 6691 263e 069e 213e 24d2 2dbd
000001c0: 8a01 05be 648b 21be 16e7 1f3d f332 2b3c
000001d0: 8f61 9bbd 146e 313d c662 323c 8644 2b3e
000001e0: 97ce 34be 3529 cabd 4b0c e1bd 6442 e5bd
000001f0: 5a68 123e 1777 b93c 7b41 8d3b 6119 20be
00000200: cbcd 47bd 006d 02be 392b ca3d 45cf ea3d
00000210: f71d b4bb 43ce fb3d bd6e 14be fe61 4f3d
00000220: 0322 8abd 5d9e 3b3d 88d7 063e ef9c 2cbe
00000230: cd04 3a3d 55a5 6e3d e37e b4bd ae74 01be
00000240: d7bb 9dbd 0a5b 24be e7ed 6bbd 42bf ce3d
00000250: 0999 f0bc 67ed 973d 45a2 e93d c8ec 22be
00000260: 654a eb3d 87ce 01be da0c f73d 8217 59bd
00000270: 7d0c 703c ac5d dcbd 04b4 e8bd 9d25 dfbd
00000280: f46a 0cbe 63a0 153c dfef 33bd 2cf8 773d
00000290: 1d42 60bd f3e6 283d b645 1bbe ac1b e83d
000002a0: 8d5d 063e 5c3f d33d 2ae7 3bbe 3f55 ba3c
000002b0: d3b7 dd3d ec70 dc3d dc53 ffbc 4640 16be
000002c0: 268e a73d 11ff 253e fb40 8cbd 5963 9d3d
000002d0: a3ee a93c 5074 d53d 32b4 7cbd 364f a43d
000002e0: a2d5 643d 488d 0d3e de9b 12be 9199 ba3d
000002f0: 8e2c 923d 00a5 94bd c2be 483b d17c 1dbe
00000300: d27d e73d fe1b 2b3d 28a2 8e3d 764a fe3d
00000310: e360 e0bb 7400 a03d 94d3 cebd 3aa2 e33d
00000320: c334 323c 4b27 0c3e 58b4 163e 6fdc 3cbe
00000330: 1b5a 3a3d db55 283e d3af 8d3c afc5 b7bd
00000340: 0cf7 513d 36b9 9dbd 557f 13be c069 f5bd
00000350: 154d 013e 8793 72bd 4a56 d93c fffa d03d
00000360: e617 68bd 05ad da3d 5167 8c3d c871 083c
00000370: 575a 64bd eeff f6bd 7179 f33d 3ee6 50bd
00000380: 2941 fd3d 3362 c13c c2ce 4ebd a37d 623c
00000390: e5ae 1cbe cd92 1ebe 66ef 90bd 6234 c33d
000003a0: 6929 1dbe b4c1 013e 02ee 4cbd fd9f 33bd
000003b0: f1dd d43d 0049 a1bc d0ae 16be 8fc7 24be
000003c0: 737b 953d 8e9b a73d 72c3 e6bd e613 12be
000003d0: c38e 06be a7b5 7e3d 4be9 bdbd 59e6 a23c
000003e0: 016c 09be 9f89 193d 6ee9 823c b569 45bd
000003f0: e25c 8e3c 3de1 e0bd 17e0 c0bd 5f19 14be
0.035716783 0.06445296 0.14139204 -0.06371575 -0.08760554 0.0547228 0.1304811 0.055446975
-0.05833672 0.1752628 0.05073622 0.011219511 -0.0072650923 0.027442392 -0.13924235 0.07911668
0.08086237 0.00393596 -0.14613025 0.1310033 0.014171219 0.15812336 0.01899771 0.17390078
-0.1508082 0.13436733 -0.13376045 0.016136602 -0.022932021 0.113991536 -0.11925917 -0.13449866
-0.124952786 0.15241958 -0.057995167 0.038259454 -0.10082904 -0.058328774 -0.09976362 0.027735868
-0.051296767 0.07883339 0.05477861 -0.04612247 -0.032978866 0.011996103 0.074754894 -0.08264049
0.095422804 0.04672461 -0.058029354 0.12533003 0.13593465 0.060852617 0.07196544 0.02337833
-0.05547179 0.050378907 0.029519271 0.121684 0.0045963526 -0.019020854 -0.00822774 0.12860587
-0.0997812 0.0148693165 0.17731468 -0.03794622 0.11381166 0.0195842 -0.1157363 -0.13217218
0.1111555 0.025765182 -0.07871922 0.03642037 -0.13287807 -0.016607136 -0.07020599 -0.097150765
-0.0035086763 0.0542852 -0.11018428 -0.17140672 -0.16706373 -0.119924664 0.032643054 -0.0049650306
0.009397804 -0.04444387 -0.0920561 0.14047377 -0.07541216 0.0002755921 0.13183285 0.08714245
0.035829544 0.00283738 -0.17096809 -0.16214985 -0.14513601 0.08984919 -0.05266393 0.10355498
0.08907364 0.115454525 -0.059830327 0.11621353 -0.0155541245 0.16266403 0.15782937 -0.042436734
-0.12988868 -0.1577583 0.03903874 0.010449159 -0.07586967 0.04331787 0.010887807 0.16725358
-0.17656933 -0.09871141 -0.10988673 -0.11194304 0.1429762 0.022639794 0.0043107844 -0.15634681
-0.048780244 -0.12736893 0.09871525 0.11465315 -0.005496736 0.12295201 -0.14495368 0.050630562
-0.067447685 0.045805324 0.13168156 -0.1685674 0.045414735 0.05826314 -0.08813264 -0.12642166
-0.07701843 -0.16050354 -0.05759993 0.10095073 -0.029369848 0.07418328 0.114079036 -0.15910637
0.11488799 -0.1267644 0.12062998 -0.053000934 0.014651415 -0.10760054 -0.1136246 -0.10895846
-0.13712674 0.009132477 -0.04392993 0.06053941 -0.05475055 0.041235875 -0.15163311 0.11333403
0.13121624 0.10314819 -0.18349901 0.022745727 0.10826077 0.10763726 -0.031167917 -0.14672956
0.081814095 0.16210581 -0.068483315 0.07684965 0.020743674 0.104225755 -0.061695285 0.08022921
0.0558678 0.13823426 -0.14317271 0.09111322 0.071374044 -0.07258034 0.0030631279 -0.15379645
0.11303295 0.041774742 0.069645226 0.12416546 -0.0068474873 0.078125864 -0.10098949 0.11114927
0.010876837 0.13686864 0.14717233 -0.18443464 0.045496088 0.16439001 0.017295754 -0.08973252
0.051260993 -0.07701342 -0.14404042 -0.11983061 0.1262706 -0.059222724 0.026530404 0.10204124
-0.056663416 0.10677532 0.068556435 0.008327909 -0.055750217 -0.120605335 0.118883975 -0.051000826
0.12365944 0.023606395 -0.05049015 0.013823899 -0.15301092 -0.15485688 -0.07076912 0.095314756
-0.15347828 0.12671548 -0.05003167 -0.04385375 0.103938945 -0.01968813 -0.14715123 -0.1609175
0.07298937 0.081839666 -0.11267747 -0.14265403 -0.13140397 0.062184956 -0.09273013 0.019885229
-0.13420106 0.03748476 0.015980449 -0.048196513 0.017378274 -0.10980461 -0.09417742 -0.14462803

sparse.routing_experts.0.layers.3.0.bias f4 [32]
00000000: d4e6 2dbd d9dd 2f3e a307 d03d 5cbf e0bd
00000010: cad0 db3d ec81 df3d 3969 5ebc 31b6 c5bc
00000020: 9408 1e3d bb32 083e 8eb0 e7bd 57ba d83c
00000030: 921d babd 92da b7bb a52e 0a3e 9c1a e2bd
00000040: 67a2 4fbd c857 d33c 028a 26be 6065 c03d
00000050: 526e b23d 1946 b93d da2a d4bd 837c 113e
00000060: cc76 d23d fabd 2bbe 41a2 abbd eba9 4abc
00000070: eca9 473d f4cb 293e 498b fc3d ea2b 1abe
-0.042456463 0.17174472 0.101577066 -0.10973999 0.10733183 0.109134525 -0.013574892 -0.024134727
0.0385824 0.13300602 -0.11312972 0.026456041 -0.09087671 -0.0056107724 0.13494356 -0.110402316
-0.05069199 0.025798693 -0.16263583 0.09394336 0.08712448 0.09046573 -0.10359736 0.14207654
0.10276565 -0.16771689 -0.08380557 -0.012369613 0.048746035 0.16581708 0.12331254 -0.15055814

sparse.routing_experts.1.layers.0.0.weight f4 [32, 32]
00000000: a5ba 4cbd 1efb 82bd 181c b63d d9dd 5dbd
00000010: c5bf b83b c10d d7bd 889e de3c cb3d cdbc
00000020: 8b01 dcbd 1da6 f5bd 3760 e2bd a924 093e
00000030: f58c 403d 83f3 17be ca66 d23d a42c 243e
00000040: 6e1a faba 6c6e 1e3e ec0a abbd 8f16 c93b
00000050: dfd7 b2bc c795 2e3e a061 e0bd 0baf 5a3d
00000060: 3b0d ed3d 0a08 84bd c5cb 08be 8688 7b3d
00000070: 8442 e93d d83b 213d 3027 e2bd cdfb 573c
00000080: 22f0 863c 2c77 313e aa46 96bd 33c3 22be
00000090: 222d b7bd 7b51 863d 730e 153e 7b2b 863d
000000a0: d1eb 01be 9f06 033e 31c4 23be 5a1e 33bd
000000b0: 1410 ebbd ffaf 23be e03f 06be a228 eebd
000000c0: e5ad ebbd 41a3 c53c ffa3 e6bd 39c8 c7bd
000000d0: bf50 6dbd 1c17 ebbd 133d f1bc 0a20 e23c
000000e0: 8830 073e 44fb 20be ba14 00bd 3801 0f3e
000000f0: cf68 36bc ee92 86bd d667 ab3d b93b 73bd
00000100: 7ca3 57bd 8a97 e2bc eb9a 41bd 6a71 c53d
00000110: 3034 cebd b7c7 173e e63c 553d 9d2f abbd
00000120: 750c d53d 5958 1abd 2dbb 143d 8033 49bc
00000130: a152 01be 0484 a13d ec7d 07be e1b3 c9bd
00000140: eddf 21be ed00 f2bc 8a4c ffbd 9277 0b3e
00000150: 54db cdbd 0f10 28be 7c5e 4e3d 9675 17be
00000160: 35cb bc3c c486 ff3d a237 013e 798f 123e
00000170: 9ffa bbbd 9fda e23d 861b ccbd f742 6d3d
00000180: bb3b 0abd be92 8ebc a90f a63d 885a 1a3d
00000190: 2274 bb3c 0b26 9dbd e4f4 b93d 1e53 81bd
000001a0: 5b67 1a3e a2b7 33be 7fb6 30bd d1ce d5bc
000001b0: cb2f 123e 4d3b c2bd 97a3 69bd c3d3 c03c
000001c0: 5f60 7cbd 5d66 a73c d741 9e3d 6936 0f3e
000001d0: ec7f 9e3d 59da db3d 6e85 9e3c 6830 d5bd
000001e0: fa44 d13d 905d 24bb c549 8f3d 2cbc 473d
000001f0: 0a39 bebd ee99 e73d 7382 033d f770 ef3d
00000200: 7be0 92bd 318f 4b3c b20c e0bc ad4f 33bd
00000210: 90fe c73d c6c9 86bb af2c 4a3d d8b3 f7bd
00000220: 6ae8 4dbd c50f fd3d 0546 d9bd 94ed ddbd
00000230: 6e84 33be f856 1c3e d5a9 bf3d 34fd 45bd
00000240: d07e 52bd b32c b63d 9f8f 2bbd e5dd 7ebd
00000250: 92d4 8fbc c4a1 103e 0b9a 6c3d dd63 b6bd
00000260: 29c2 153e c731 ed3b e20d aebd 8e83 de3d
00000270: db8e 69bc 0ae5 983d c7a6 c0bd 2824 32be
00000280: ba90 b63d 780e 553c 9fe8 c3bb 3246 f63d
00000290: 34c9 1cbe fd35 cdbd aa87 cebd 9839 8ebd
000002a0: d2af f63d 0eaa da3d 6fa3 9a3d 576d 5fbd
000002b0: 2d60 8dbc 1660 0cbe 0dc2 41bd f43d ae3d
000002c0: e83d 0b3e f3d4 36bd 1284 9f3d 6af9 e4bd
000002d0: f20a aa3d 53f2 38be 132b fdbd 75a4 013e
000002e0: def3 e3bc bfb6 abbd 37ae 35be e4fd 183d
000002f0: 4e70 143d 62f8 cabc 28e8 db3d d9b2 f9bd
00000300: fb1d 98bd f0e6 ad3d 36d1 e9bd 5ec1 39be
00000310: 5ab4 923c adce 973c 6f12 963d 5f4f f8bd
00000320: b58c 143d c352 efbc 880a 213e efe6 32be
00000330: 1eda f9bd 5b6c 1cbe 0f71 38be 807b e83d
00000340: 1f22 293e 5d25 08bd f436 eebd 6e8b 093d
00000350: ac9a 173e ba8c a53c 2481 823d ed53 293e
00000360: a6ad d6bd cff7 17be 6900 d33d 3437 f13d
00000370: 379c 40bd 07f5 cf3c 0ada babc 586a c23d
00000380: 5c4e 03be 9002 3fbe d206 213e d29c 803c
00000390: 6087 27bd 1946 7cbd 2b05 d1bd 0031 94bd
000003a0: 79ad d53d f11c 21be c28e c43d 512a e63d
000003b0: 9927 0a3e 21b5 2bbe c4bf a0bc ce86 b73c
000003c0: 5890 273d 9248 063e 676e 083e c43e 9cbd
000003d0: d313 94bd 1524 2c3d 585a 10bd 0309 25be
000003e0: f9d4 a2bd bac7 cabd 8f0f 04be d3a1 15be
000003f0: c266 a53d 66d6 8fbd 1966 d73c 5581 153e
-0.049982686 -0.06395553 0.08892077 -0.05416665 0.005638095 -0.1050067 0.027175203 -0.02505388
-0.10742482 -0.11994574 -0.11053508 0.13392891 0.047009427 -0.14838986 0.10273512 0.16032654
-0.0019081363 0.1547181 -0.083516926 0.0061367224 -0.021831451 0.17049323 -0.109561205 0.05338959
0.11574789 -0.06446846 -0.13358982 0.061409496 0.1138964 0.039363712 -0.11042631 0.013182593
0.016471926 0.17330617 -0.07337697 -0.15894775 -0.08944155 0.0655851 0.14556293 0.06551262
-0.12687613 0.12795494 -0.1599281 -0.043730117 -0.11477676 -0.15985106 -0.13110304 -0.11628844
-0.11507777 0.024125697 -0.112617485 -0.09754986 -0.057938334 -0.11479017 -0.029448068 0.027603168
0.13202107 -0.1572085 -0.031269766 0.13965309 -0.011133387 -0.06570993 0.083694145 -0.059383128
-0.052646145 -0.02766015 -0.047266882 0.09640773 -0.10068548 0.14822279 0.05206003 -0.08358691
0.104027666 -0.03768191 0.036311317 -0.012280345 -0.12629177 0.07886508 -0.13231629 -0.09848762
-0.15808077 -0.029541457 -0.124657705 0.13619831 -0.10051599 -0.16412376 0.050383076 -0.14790949
0.023046115 0.124768764 0.12618878 0.14312543 -0.091786616 0.11076855 -0.09966187 0.05792519
-0.03374837 -0.017403957 0.08108456 0.037683994 0.022882525 -0.07673272 0.09079912 -0.063146815
0.1507849 -0.17550519 -0.04314279 -0.026099594 0.14276044 -0.09483967 -0.057040777 0.023538476
-0.061615344 0.020434553 0.07727402 0.139856 0.07739243 0.10735006 0.019350734 -0.104096234
0.10218234 -0.0025080182 0.06996492 0.04876344 -0.09288223 0.11308657 0.032106828 0.11691468
-0.071717225 0.012424276 -0.027349804 -0.043777157 0.09765351 -0.0041134087 0.04935902 -0.12094849
-0.050270475 0.123565234 -0.10609058 -0.1083633 -0.17530987 0.15267551 0.09358565 -0.048337176
-0.05139047 0.088952444 -0.041885015 -0.062223334 -0.017557416 0.14124209 0.057764094 -0.08905766
0.14624847 0.0072386 -0.08498742 0.10864936 -0.014255251 0.07465561 -0.0940681 -0.17396605
0.08914323 0.013003938 -0.0059786583 0.120251074 -0.15311128 -0.10020063 -0.100844696 -0.06944579
0.12045254 0.106769666 0.07550704 -0.054547634 -0.017257774 -0.13708529 -0.047304202 0.0850791
0.13597834 -0.044636678 0.07788862 -0.111803845 0.08302869 -0.1806119 -0.123617314 0.12660392
-0.027826246 -0.083844654 -0.17742239 0.037351504 0.036239915 -0.024776641 0.1073764 -0.121923156
-0.07427593 0.084913135 -0.11416857 -0.1814017 0.017908264 0.018531168 0.07327735 -0.12124514
0.036267 -0.029214269 0.15726674 -0.17470907 -0.12199806 -0.1527571 -0.18011878 0.11351681
0.16516922 -0.033238757 -0.11631575 0.033580236 0.14805096 0.020208705 0.06372288 0.16535921
-0.104823396 -0.14840625 0.103028126 0.11778107 -0.047023978 0.025385393 -0.022809047 0.0949294
-0.1282286 -0.18653321 0.15725258 0.015699778 -0.040900588 -0.061590288 -0.10206064 -0.072359085
0.10433478 -0.15733697 0.095975414 0.1123854 0.13491668 -0.16768314 -0.019622691 0.022403147
0.04090914 0.13113621 0.13323365 -0.07629159 -0.07230344 0.042026598 -0.03524241 -0.16116719
-0.079507776 -0.09901376 -0.1289656 -0.14612512 0.0807624 -0.07023315 0.026293801 0.14600118

sparse.routing_experts.1.layers.0.0.bias f4 [32]
00000000: e563 c1bd 9da0 b6bd 5b0c d8bd 797d 25be
00000010: d250 bcbc 3c0c 1e3e d07b 14bd 2b30 073d
00000020: 5a9d f93d 68f6 123e 4af0 38be 9740 033e
00000030: 123a 353e c6bd e2bd 08de 113e 1003 1fbe
00000040: 6bef 303e eb03 2cbe 3a84 ccbd 99e1 0fbc
00000050: 2af6 993d e7a8 163e 4715 af3d f6a5 8c3d
00000060: 2442 d23d 46b3 b53d 5103 24be 3afa e9bd
00000070: 02ea ad3d 406e 303d 9f1e 893d 3c08 dfbd
-0.094428815 -0.08917353 -0.105492316 -0.16161145 -0.022987757 0.15434355 -0.03625089 0.03300492
0.121882156 0.14351809 -0.18060413 0.12817608 0.17697933 -0.11071353 0.14244854 -0.15528512
0.1727883 -0.1679837 -0.09986158 -0.008781814 0.07517655 0.14712869 0.0854898 0.06867592
0.102665216 0.08872084 -0.1601689 -0.1142468 0.08491899 0.043073893 0.06695294 -0.108902425
