model/saved/best_model.pt (torch, 228642 bytes, 73 tensors)

fc1.weight f4 [32, 404]
-0.02168517 0.013941484 0.03378585 -0.03354379 0.038416572 -0.059612073 -0.030743422 0.012527703
-0.013248759 -0.05635211 -0.03288829 0.04394528 -0.011024702 0.015460395 -0.033568017 -0.031848934
-0.037068844 -0.03041785 -0.033207268 0.01240722 -0.03412621 -0.02295336 -0.009758712 -0.0014675121
0.01804116 -0.004767255 -0.010078188 0.020142071 -0.02438881 0.013492925 -0.025206383 -0.03190073
-0.01451004 0.024570957 -0.021135159 -0.033999555 0.032327536 -0.01126519 -0.008390494 0.03635312
-0.00468848 -0.042212453 0.01255603 0.0013285314 0.038062416 -0.0066716406 0.02088023 -0.038940627
-0.022642653 0.0032261861 0.022773476 -0.00980726 0.018814242 -0.02974286 -0.0044100583 -0.05488271
-0.0139576 0.035861164 0.03569044 0.037089337 -0.023921842 -0.011330656 -0.038096108 0.033629745
0.0015622883 0.008395531 -0.042815447 -0.04591646 -0.03826799 -0.030232484 -0.02868536 0.016343715
-0.0021478585 0.022750685 3.4675948e-05 -0.009480083 -0.0015499541 0.039772682 -0.018097058 -0.057445258
0.011131578 -0.05456592 0.03148512 -0.00052749395 -0.035833623 -0.020196166 0.041331768 0.0017166187
-0.026809627 -0.022719285 -0.010245722 -0.032195907 0.039337516 0.009614393 0.022222616 0.046043072
-0.03632364 0.044871468 0.053156853 0.024072628 -0.04111333 -0.027386118 0.022541424 -0.0031748533
0.047187302 0.0209347 -0.03591523 0.019889414 -0.0019065967 0.028609892 -0.025577882 0.0067274035
-0.04686258 0.043335915 0.016233278 0.006875661 -0.014643052 0.01309332 0.021540858 -0.027507331
0.03943539 -0.041879863 -0.009083685 0.012395688 -0.02174831 -0.037169542 0.039730866 -0.0018554793
0.024453068 -0.046448443 0.03188494 0.003331079 -0.047555592 -0.03846719 0.029867304 0.0259407
0.03241339 -0.011673039 0.025640678 -0.0050324854 -0.0014195963 -0.00890083 -0.023549713 0.03168948
0.033611927 0.019558884 0.036281466 -0.044373773 -0.026416646 -0.02815764 0.03742901 0.009484155
0.03904072 -0.03234701 0.043092314 0.01686019 -0.023680482 0.016519634 0.030404873 0.04220295
-0.048289917 0.0059466995 0.026437663 0.021916455 0.001251674 -0.011195968 0.045275047 0.01488289
-0.020577667 -0.03443074 0.055939157 -0.019008964 -0.0005245392 -0.0009373864 -0.0009872515 0.04359107
-0.016322134 0.018904015 -0.015714563 0.03743249 -0.019316947 0.0074331462 -0.03536464 0.04647697
-0.0006458777 -0.015396694 -0.03081468 -0.015456009 0.002352767 0.039930753 0.045099873 -0.021916468
0.0347534 -0.035991177 -0.018663255 0.03425415 0.02460863 0.00065170205 0.027585788 0.025044713
-0.0073631704 -0.056021765 0.007566983 0.03473197 0.031600993 0.017272595 -0.05464635 0.014972311
-0.040682305 -0.0045182626 -0.03602814 0.03500604 0.02500335 0.019445285 -0.031028 -0.04526053
-0.0046048607 0.01608224 -0.014617824 0.011409512 0.03829904 -0.0022896908 -0.0058848043 -0.04687732
0.026495716 0.0360505 -0.039159723 -0.052177146 -0.024702244 0.005369639 0.043000534 -0.03419972
-0.013915485 -0.022173405 -0.016955858 0.03146853 0.030010058 0.044383775 -0.0036780674 -0.031058539
-0.049223594 0.04122241 0.012743325 -0.01116396 0.043684226 -0.041751593 -0.05396394 -0.03437613
-0.017099291 -0.02232065 -0.032400377 -0.025420109 -0.0144619355 0.006544669 -0.049097806 0.024672767
00000000: 19a5 b1bc d26a 643c 0863 0a3d 3765 09bd
00000010: b25a 1d3d ca2b 74bd a1d9 fbbc ff40 4d3c
00000020: 5311 59bc 78d1 66bd dfb5 06bd f7ff 333d
00000030: f4a0 34bc 994d 7d3c 9e7e 09bd 0774 02bd
00000040: 80d5 17bd db2e f9bc 5804 08bd a747 4b3c
00000050: edc7 0bbd af08 bcbc 01e3 1fbc 8959 c0ba
00000060: 0ecb 933c a236 9cbb fc1e 25bc fc00 a53c
00000070: 0bcb c7bc 6e11 5d3c 9e7d cebc 57aa 02bd
00000080: 85bb 6dbc 0849 c93c a423 adbc 1e43 0bbd
00000090: e169 043d a291 38bc 4878 09bc 02e7 143d
000000a0: d2a1 99bb f7e6 2cbd cfb7 4d3c 1e22 ae3a
000000b0: 56e7 1b3d c79d dabb 040d ab3c 3580 1fbd
000000c0: 167d b9bc 6c6e 533b 718f ba3c a1ae 20bc
000000d0: 5320 9a3c 4ca7 f3bc 4082 90bb b1cc 60bd
000000e0: 6bae 64bc 28e3 123d 2430 123d fdea 173d
000000f0: bdf7 c3bc 37a4 39bc aa0a 1cbd 58bf 093d
00000100: b2c5 cc3a 698d 093c 405f 2fbd e612 3cbd
00000110: e5be 1cbd 1daa f7bc 8ffd eabc 41e3 853c
00000120: 16c3 0cbb a55f ba3c 0471 1138 5a52 1bbc
00000130: d427 cbba aee8 223d 4840 94bc b84b 6bbd
00000140: 3961 363c 8480 5fbd 8bf6 003d 8547 0aba
00000150: 47c6 12bd 6e72 a5bc 804b 293d 2a00 e13a
00000160: dd9f dbbc cb1d babc acdd 27bc dbdf 03bd
00000170: 6020 213d b085 1d3c 340c b63c a997 3c3d
00000180: 19c8 14bd 25cb 373d 00bb 593d f633 c53c
00000190: 7366 28bd da58 e0bc cba8 b83c 3311 50bb
000001a0: 7947 413d 3f7f ab3c d91b 13bd 20ef a23c
000001b0: c5e6 f9ba 4b5f ea3c b588 d1bc 8d71 dc3b
000001c0: faf2 3fbd 0081 313d a7fb 843c 3a4d e13b
000001d0: 69e9 6fbc 5d85 563c 7476 b03c 0e57 e1bc
000001e0: 0187 213d 388a 2bbd bdd3 14bc 4917 4b3c
000001f0: 8329 b2bc 173f 18bd d5bc 223d 8e33 f3ba
00000200: cd51 c83c b940 3ebd c899 023d 3b4e 5a3b
00000210: a7c9 42bd c68f 1dbd 47ac f43c 9781 d43c
00000220: e7c3 043d 4640 3fbc 660c d23c 8ce7 a4bb
00000230: bf11 baba c9d4 11bc 54eb c0bc d4cc 013d
00000240: a9ac 093d f439 a03c e09b 143d 46c1 35bd
00000250: b967 d8bc daaa e6bc 294f 193d 6e63 1b3c
00000260: 29e9 1f3d 4c7e 04bd 9181 303d 621e 8a3c
00000270: 92fd c1bc 2f54 873c a413 f93c 00dd 2c3d
00000280: a6cb 45bd 88dc c23b cc93 d83c 238a b33c
00000290: 360f a43a 4b6f 37bc 5472 393d 5dd7 733c
000002a0: 7f92 a8bc 3f07 0dbd 7520 653d b0b8 9bbc
000002b0: 3b81 09ba f0ba 75ba aa66 81ba 8d8c 323d
000002c0: ffb5 85bc 98dc 9a3c d4bb 80bc d052 193d
000002d0: 933e 9ebc c091 f33b 83da 10bd a35e 3e3d
000002e0: 1e50 29ba 6a42 7cbc 116f fcbc 333b 7dbc
000002f0: e130 1a3b 6e8e 233d a5ba 383d 2a8a b3bc
00000300: 9559 0e3d 7c6b 13bd afe3 98bc 144e 0c3d
00000310: 0a98 c93c fcd6 2a3a 97fb e13c 922a cd3c
00000320: c046 f1bb 1477 65bd 74f4 f73b 1c43 0e3d
00000330: 0b70 013d 427f 8d3c dad4 5fbd 6d4e 753c
00000340: 7da2 26bd ef0d 94bb 3e92 13bd 7e62 0f3d
00000350: d3d3 cc3c b84b 9f3c 6f2e febc 1b63 39bd
00000360: 5fe4 96bb e7be 833c 997f 6fbc f6ee 3a3c
00000370: 74df 1c3d a30e 16bb 51d5 c0bb 6f02 40bd
00000380: 8b0d d93c b0a9 133d f265 20bd b4b7 55bd
00000390: 5c5c cabc ccf3 af3b 5421 303d 0115 0cbd
000003a0: c6fd 63bc 00a5 b5bc 03e7 8abc 25e5 003d
000003b0: a7d7 f53c c3cb 353d bb0b 71bb 7a6e febc
000003c0: ae9e 49bd d4d8 283d 61c9 503c 0be9 36bc
000003d0: 3bee 323d b803 2bbd 4b09 5dbd fccd 0cbd
000003e0: d013 8cbc ccd9 b6bc 42b6 04bd d53d d0bc
000003f0: c1f1 6cbc aa74 d63b c81a 49bd 8b1e ca3c

fc1.bias f4 [32]
0.03379821 0.018112706 0.01788 0.028926488 -0.04833292 -0.048152313 -0.00794782 -0.022086013
-0.03747407 0.02261785 0.018112808 0.022122273 0.037631623 0.0027826854 -0.048114467 -0.0008277655
-0.024283437 0.01792749 0.045534484 -0.036654368 0.035519786 0.038231492 0.007310553 0.032835927
0.012225024 -0.033002008 -0.010255778 -0.028604735 -0.025526872 -0.039563484 -0.0015798934 -0.032797728
00000000: fe6f 0a3d 1961 943c 1479 923c 3ef7 ec3c
00000010: bdf8 45bd 5c3b 45bd 9337 02bc baed b4bc
00000020: 697e 19bd 1249 b93c 5061 943c c539 b53c
00000030: 9e23 1a3d b75d 363b ad13 45bd 67fe 58ba
00000040: 0fee c6bc acdc 923c 5e82 3a3d e422 16bd
00000050: 327d 113d a098 1c3d 5d8d ef3b f77e 063d
00000060: 784b 483c 1d2d 07bd da07 28bc 7a54 eabc
00000070: bb1d d1bc 520d 22bd 6d14 cfba e956 06bd

sparse.shared_expert.0.weight f4 [32, 32]
-0.018609155 0.06434412 -0.05284207 0.028045315 -0.044752065 0.076493055 -0.06228933 -0.03421348
-0.020941872 -0.00089234527 0.019505264 -0.1330242 -0.09344448 0.0020875994 -0.11103969 -0.066724576
-0.17593242 0.12281481 -0.13930759 -0.07846198 0.15434167 -0.17673773 0.14531253 -0.14481048
-0.17082773 -0.08778604 0.04509792 0.038485333 -0.18302262 0.10648927 0.049219366 -0.0050637787
0.1611189 -0.0062841624 0.019599708 -0.043339875 0.0372431 0.10714697 -0.11983068 -0.10993977
0.07470575 0.023950178 -0.1641235 -0.0019750744 -0.009492775 0.09475239 -0.10562869 -0.15737756
0.06328197 -0.047371626 0.1646381 0.09115482 -0.13687311 0.018698744 0.15007052 0.09473488
-0.16763234 0.1024232 -0.13910429 -0.13101937 0.0658816 0.05618158 -0.09165852 0.03823516
-0.14694068 -0.03173139 0.0008931272 0.11445549 0.041590367 0.07651546 0.14989518 -0.12652819
0.16510354 -0.15663768 0.16459155 0.14992973 -0.09411883 -0.091426745 0.06918991 0.15294644
-0.14615119 -0.013838247 0.061901823 0.15350847 -0.09638428 -0.057124343 0.078327246 0.12277083
0.14540975 0.14518154 0.09213564 -0.04367965 0.16728118 -0.15954785 0.0061147125 -0.1665095
-0.13829437 -0.16388164 -0.17315894 -0.1160272 0.0020376004 0.13882223 0.055648994 -0.17155115
-0.06137608 -0.17957853 0.097566426 -0.064733334 0.12006254 0.0088024 -0.1860079 -0.09690388
-0.1106828 -0.090870574 -0.04461023 -0.06408469 0.14524516 -0.07459117 0.1523909 -0.041944567
0.12656957 0.09993163 -0.10822943 -0.07997365 -0.175546 -0.085749276 -0.17384182 0.051406715
-0.056014583 0.13175173 0.061003003 0.044878077 0.16332635 -0.13638231 -0.040374313 -0.06543115
0.10260946 0.022591557 -0.17881255 -0.070477724 0.019233085 -0.053447254 -0.12603103 -0.055585384
0.09530672 -0.036197476 -0.043899603 0.035327833 0.1239782 0.091947064 -0.020424834 0.055423398
0.02940106 -0.08547789 -0.0662573 -0.004400829 -0.086617336 0.044311963 0.1597389 -0.13315718
-0.0049457247 -0.081270106 -0.15618134 -0.119295105 0.10227649 0.12709853 0.011265604 0.13762589
-0.071855 0.009622254 0.07291356 -0.05225426 -0.17451614 -0.047141053 -0.109547816 0.13269596
0.033206906 0.15761907 0.12353978 0.027118318 0.07868526 -0.14491299 -0.039585024 -0.12855913
-0.14507401 -0.18172298 0.09614864 0.076113366 0.10502449 -0.096769884 0.007933278 0.047490273
-0.08037182 -0.14556989 -0.056173623 -0.16502891 -0.119168766 0.11565182 0.01671653 0.13381548
-0.08339593 -0.0038006934 -0.1398367 -0.038550623 -0.12350391 -0.080173485 0.058454465 0.124475725
0.032468446 0.003562513 -0.017298771 0.16668458 0.00079601223 -0.11577295 -0.07386388 0.010886281
-0.05889186 0.11952338 0.014393317 -0.15370989 0.039530817 -0.114153296 0.012631438 0.016337208
0.14651504 -0.15642004 0.13122688 -0.117181815 0.11631959 -0.06912547 -0.050990645 0.012381733
0.12502056 0.017833646 -0.10246241 -0.12083861 0.12726955 -0.14507097 0.06360499 0.007704856
-0.077055335 -0.16900188 0.15033767 0.08346273 -0.18716621 -0.17992581 -0.1331019 -0.15338689
-0.15206897 0.04367078 -0.017717823 -0.03594844 0.14991216 0.08506525 -0.16110922 -0.10573385
00000000: 3a72 98bc dac6 833d ed70 58bd 4abf e53c
00000010: f14d 37bd 64a8 9c3d 1923 7fbd 6f23 0cbd
00000020: 4a8e abbc 47ec 69ba 81c9 9f3c 7f37 08be
00000030: d25f bfbd 1bd0 083b c768 e3bd e5a6 88bd
00000040: a127 34be 5586 fb3d a6a6 0ebe adb0 a0bd
00000050: be0b 1e3e bcfa 34be cfcc 143e 3349 14be
00000060: 77ed 2ebe 2bc9 b3bd 99b8 383d cca2 1d3d
00000070: 486a 3bbe 0c17 da3d 3f9a 493d 0eee a5bb
00000080: 5afc 243e 60eb cdbb 918f a03c 2785 31bd
00000090: 398c 183d df6f db3d ca69 f5bd 1a28 e1bd
000000a0: 54ff 983d 2a33 c43c fe0f 28be 4070 01bb
000000b0: 9687 1bbc 8b0d c23d db53 d8bd 9527 21be
000000c0: fa99 813d c008 42bd e496 283e 61af ba3d
000000d0: 7728 0cbe 1c2e 993c 16ac 193e 5c04 c23d
000000e0: d0a7 2bbe 41c3 d13d 5b71 0ebe f129 06be
000000f0: efec 863d a81e 663d 76b7 bbbd 799c 1c3d
00000100: 9e77 16be c6f8 01bd c020 6a3a a467 ea3d
00000110: a95a 2a3d 23b4 9c3d 1f7e 193e 9b90 01be
00000120: e710 293e a165 20be b08a 283e 2e87 193e
00000130: 60c1 c0bd f23d bbbd 71b3 8d3d fe9d 1c3e
00000140: a8a8 15be d1b9 62bc c48c 7d3d 5331 1d3e
00000150: 1f65 c5bd 37fb 69bd 096a a03d 466f fb3d
00000160: 4be6 143e 78aa 143e 9cb1 bc3d 6fe9 32bd
00000170: c24b 2b3e 8360 23be ed5d c83b 7781 2abe
00000180: 0a9d 0dbe 97d0 27be 9450 31be ab9f edbd
00000190: 4389 053b 6a27 0e3e 33f0 633d 1bab 2fbe
000001a0: 7c65 7bbd 6fe3 37be e8d0 c73d e992 84bd
000001b0: 59e3 f53d f137 103c db78 3ebe 8b75 c6bd
000001c0: aaad e2bd 5a1a babd 37b9 36bd d53e 83bd
000001d0: 26bb 143e 41c3 98bd 5c0c 1c3e 11ce 2bbd
000001e0: 749b 013e f4a8 cc3d 64a7 ddbd 3ac9 a3bd
000001f0: 55c2 33be 519d afbd 9703 32be d98f 523d
00000200: 8c6f 65bd ede9 063e 49de 793d 13d2 373d
00000210: 063f 273e cea7 0bbe 895f 25bd c400 86bd
00000220: e924 d23d ee11 b93c a31a 37be a056 90bd
00000230: b48e 9d3c 82eb 5abd 470e 01be 80ad 63bd
00000240: 2b30 c33d ce43 14bd 12d0 33bd ebb3 103d
00000250: 48e8 fd3d be4e bc3d fb51 a7bc a503 633d
00000260: 7eda f03c 080f afbd e8b1 87bd d434 90bb
00000270: 6e64 b1bd 7680 353d 9892 233e 5b5a 08be
00000280: bf0f a2bb f170 a6bd 00ee 1fbe fe50 f4bd
00000290: 5676 d13d 1e26 023e 5e93 383c cded 0c3e
000002a0: b728 93bd a9a6 1d3c b453 953d 9008 56bd
000002b0: 5cb4 32be fa16 41bd 9b5a e0bd 73e1 073e
000002c0: f703 083d e566 213e 6d02 fd3d 3c27 de3c
000002d0: bd25 a13d 1264 14be e823 22bd 01a5 03be
000002e0: 488e 14be 9715 3abe 94e9 c43d 53e1 9b3d
000002f0: 1417 d73d 4a2f c6bd 94fa 013c 2985 423d
00000300: fb99 a4bd 4610 15be 5016 66bd 57fd 28be
00000310: c10e f4bd ddda ec3d 1bf1 883c ed06 093e
00000320: 7ccb aabd 0e15 79bb 5a31 0fbe 42e7 1dbd
00000330: 9eef fcbd ff31 a4bd f36d 6f3d 21ed fe3d
00000340: a2fd 043d 0d79 693b 27b6 8dbc 5daf 2a3e
00000350: 7aab 503a 5e1a edbd f245 97bd 5f5c 323c
00000360: 9738 71bd adc8 f43d f2d1 6b3c 2066 1dbe
00000370: 11eb 213d 34c9 e9bd 17f4 4e3c 9cd5 853c
00000380: 0a08 163e 932c 20be 5760 063e 05fd efbd
00000390: f738 ee3d a891 8dbd 91db 50bd c1dc 4a3c
000003a0: 6405 003e de17 923c d0d7 d1bd 3c7a f7bd
000003b0: f352 023e 7c8d 14be 5543 823d 0479 fc3b
000003c0: 30cf 9dbd d40e 2dbe 1ef2 193e 82ee aa3d
000003d0: 80a8 3fbe 793e 38be dd4b 08be 7411 1dbe
000003e0: f8b7 1bbe 22e0 323d f824 91bc ac3e 13bd
000003f0: 9382 193e b136 ae3d d1f9 24be fd8a d8bd

sparse.shared_expert.0.bias f4 [32]
0.050580844 -0.13069858 -0.16005959 -0.11964865 0.14535461 -0.084965594 0.11030437 0.015886743
-0.13398713 0.06264582 -0.08465746 0.047731545 0.15584835 -0.06639267 -0.04225637 -0.16621469
-0.12032231 0.033784438 0.100893125 -0.07575165 0.032106437 -0.1065451 -0.011311952 -0.053394087
-0.17937706 0.10871134 -0.14547 -0.10782894 0.1525797 0.08455013 -0.040358 0.012375183
00000000: dc2d 4f3d d9d5 05be a9e6 23be 5a0a f5bd
00000010: d7d7 143e 7102 aebd 42e7 e13d ea24 823c
00000020: ec33 09be 744c 803d e460 adbd 2782 433d
00000030: b696 1f3e e1f8 87bd 0415 2dbd 2f34 2abe
00000040: 8b6b f6bd 8d61 0a3d 0ea1 ce3d ae23 9bbd
00000050: 0a82 033d 5134 dabd c455 39bc c2b3 5abd
00000060: 9fae 37be 0da4 de3d 16f6 14be 6bd5 dcbd
00000070: da3d 1c3e 9e28 ad3d 6e4e 25bd 48c1 4a3c

sparse.routing_experts.0.layers.0.0.weight f4 [32, 32]
0.09116376 -0.16995518 -0.010907087 -0.0224969 -0.16614303 -0.09420926 0.0616358 -0.058264438
-0.06793922 -0.031331718 -0.028117916 0.014949407 -0.11252556 -0.10477343 0.03969013 0.13741992
-0.08739683 0.10503378 -0.14187396 0.15672147 -0.0730888 -0.022755219 -0.012894019 -0.058953874
-0.04792413 -0.03752604 -0.07305963 0.0009352904 0.13622928 -0.050579518 -0.06936856 0.020323802
0.06358497 -0.14920405 0.00082651 -0.070722304 -0.10183923 -0.015579504 0.019950282 0.112846434
0.15103708 0.063567065 0.02563008 0.07147591 0.1581401 0.06309584 -0.10047395 -0.031572513
0.17496903 0.12028206 0.08126633 0.15271892 -0.059044898 -0.07542784 0.17867443 -0.059372656
0.13873439 0.08040267 0.03219511 0.07896962 -0.030549517 0.074673474 -0.08045644 -0.0917909
0.03272243 0.11830851 0.14782941 -0.040109325 0.14567123 0.06461938 -0.14085111 -0.07975081
-0.16273774 0.13612972 -0.057755046 0.05330924 0.1394072 -0.0041769743 -0.07807146 0.023559723
0.1309551 -0.081581645 -0.07253403 0.1672783 0.17316364 0.09467902 0.116970256 0.035489265
-0.042247497 0.12680517 0.13397191 -0.0870811 -0.14312197 0.05812749 0.056010727 -0.10468618
0.084783524 -0.093723856 -0.039466925 0.008680563 -0.0013338268 0.04335736 -0.14981918 -0.111306466
0.0690841 -0.024208132 0.15096506 0.15175498 -0.03813474 -0.1532939 0.115223356 -0.08245644
-0.07546306 -0.11658907 0.1531324 0.15974103 -0.06445746 -0.15390064 0.100786805 -0.0750399
0.04678495 -0.15244676 0.110698394 -0.110305816 0.04663236 0.080801174 0.084743455 0.07912316
0.06491232 0.008495112 0.0377467 -0.0403611 0.0047314237 0.11321708 0.090756014 0.028614994
0.06941913 0.034275964 -0.14114074 -0.095584825 0.14427482 0.053066567 -0.14213806 -0.046741467
-0.01538172 0.043297738 -0.0843919 0.10610185 -0.0081313765 0.113922656 -0.08929596 -0.1599198
-0.13146013 0.001358355 -0.17336917 -0.09745292 -0.17984013 0.13169901 0.16614981 0.14497076
0.007855072 0.08621174 -0.14676297 -0.15660754 0.039051518 0.044756033 -0.13668804 -0.13610622
0.040837765 0.024172977 -0.11620888 0.00096994865 0.049102508 0.117730625 -0.16669756 0.12676968
0.0603572 -0.03559639 0.17012247 0.09885789 0.075658694 0.16787383 -0.10394463 -0.15145841
0.095742315 -0.07946212 -0.1697642 0.044425096 -0.14489351 0.009930124 -0.059916724 0.027895624
0.15914255 -0.13804603 0.08972189 0.020172259 0.07217033 0.058457695 -0.09324139 -0.1146114
0.0530828 -0.17044246 -0.013751322 -0.08074289 0.10001084 -0.17391013 0.021528184 -0.12271319
0.15009263 0.018783899 -0.12514745 -0.124051794 -0.018328115 0.040352307 -0.023037016 -0.11217431
-0.16320966 -0.048330992 -0.03411195 -0.16506289 0.1402468 0.0034865523 -0.16030242 0.034866743
-0.12759352 -0.15094683 -0.1155741 0.15393437 0.17648734 0.16683437 0.036015186 0.09776921
0.08715285 0.04547278 0.07804005 -0.04788407 -0.037425194 -0.0016869786 -0.035899993 0.17332119
0.14292718 0.094370045 -0.16160154 0.062364448 0.14613381 0.0049981163 0.05968767 0.05558175
0.025949264 0.12856774 0.03222506 0.07784831 0.029473405 -0.020562023 0.026585555 -0.08340421
00000000: 11b4 ba3d bb08 2ebe a3b3 32bc 6b4b b8bc
00000010: 6621 2abe c9f0 c0bd d275 7c3d b1a6 6ebd
00000020: b823 8bbd b055 00bd 8b57 e6bc 5cee 743c
00000030: cd73 e6bd 7493 d6bd 1e92 223d cfb7 0c3e
00000040: 1cfd b2bd f31b d73d 6847 11be 987b 203e
00000050: 95af 95bd 2769 babc 6f41 53bc 9e79 71bd
00000060: 184c 44bd e8b4 19bd 4aa0 95bd 472e 753a
00000070: b07f 0b3e 782c 4fbd 1b11 8ebd 1a7e a63c
00000080: d638 823d f2c8 18be 26aa 583a dbd6 90bd
00000090: 1691 d0bd 2d41 7fbc c66e a33c 081c e73d
000000a0: 77a9 1a3e 732f 823d 2cf6 d13c f661 923d
000000b0: 7aef 213e 6438 813d 49c5 cdbd 2e52 01bd
000000c0: 152b 333e 7156 f63d f66e a63d 5962 1c3e
000000d0: 10d9 71bd e979 9abd 6ef6 363e be30 73bd
000000e0: 6310 0e3e 28aa a43d 05df 033d d3ba a13d
000000f0: fb42 fabc 68ee 983d 59c6 a4bd defc bbbd
00000100: f407 063d bb4b f23d 9860 173e ad49 24bd
00000110: d72a 153e 2a57 843d 463b 10be 6554 a3bd
00000120: b9a4 26be 9765 0b3e 8e90 6cbd ca5a 5a3d
00000130: c3c0 0e3e 00df 88bb eee3 9fbd 5200 c13c
00000140: 1819 063e 4714 a7bd b98c 94bd 014b 2b3e
00000150: cf51 313e 13e7 c13d 1a8e ef3d 315d 113d
00000160: b60b 2dbd 37d9 013e ef2f 093e 9357 b2bd
00000170: 918e 12be 1717 6e3d 816b 653d b565 d6bd
00000180: fca2 ad3d 4bf2 bfbd 12a8 21bd ec38 0e3c
00000190: cdd3 aeba 7d97 313d 336a 19be a5f4 e3bd
000001a0: f77b 8d3d 2250 c6bc 9696 1a3e a865 1b3e
000001b0: 2c33 1cbd 13f9 1cbe 39fa eb3d ecde a8bd
000001c0: 608c 9abd 40c6 eebd bdce 1c3e 2793 233e
000001d0: 4602 84bd 2198 1dbe 5069 ce3d 85ae 99bd
000001e0: 93a1 3f3d 011b 1cbe d7b5 e23d 04e8 e1bd
000001f0: 9301 3f3d 167b a53d fa8d ad3d 530b a23d
00000200: c0f0 843d 152f 0b3c 499c 1a3d ae51 25bd
00000210: 0f0a 9b3b 5bde e73d 4ade b93d fe69 ea3c
00000220: 9e2b 8e3d f464 0c3d 3387 10be fac1 c3bd
00000230: c7bc 133e 545c 593d a48c 11be fb73 3fbd
00000240: 9c03 7cbc f858 313d a9d5 acbd ed4b d93d
00000250: 7739 05bc 4850 e93d cde0 b6bd 04c2 23be
00000260: 7c9d 06be d50a b23a b087 31be 6695 c7bd
00000270: 0328 38be 1bdc 063e 2d23 2a3e 3773 143e
00000280: 8fb2 003c c88f b03d 0849 16be ba5d 20be
00000290: 7cf4 1f3d 1a52 373d f3f7 0bbe 6e5f 0bbe
000002a0: 8045 273d 6806 c63c ecfe edbd 2744 7e3a
000002b0: b61f 493d c11c f13d c4b2 2abe e9cf 013e
000002c0: 1d39 773d 85cd 11bd 9634 2e3e 0176 ca3d
000002d0: f2f2 9a3d 1ee7 2b3e ece0 d4bd ea17 1bbe
000002e0: 8c14 c43d 09bd a2bd abd6 2dbe 17f7 353d
000002f0: f75e 14be f5b1 223c 3d6b 75bd 5d85 e43c
00000300: 44f6 223e f05b 0dbe 1cc0 b73d 4b40 a53c
00000310: 0ace 933d 5671 6f3d 58f5 bebd 62b9 eabd
00000320: 5a6d 593d 7888 2ebe 3a4d 61bc 875c a5bd
00000330: 7cd2 cc3d 7f15 32be e05b b03c 0e51 fbbd
00000340: e2b1 193e b1e0 993c a726 00be de0e febd
00000350: d824 96bc 7648 253d 20b8 bcbc a5bb e5bd
00000360: 6f20 27be b8f6 45bd f9b8 0bbd 3f06 29be
00000370: db9c 0f3e a47e 643b 5126 24be 6ed0 0e3d
00000380: e0a7 02be ce91 1abe 1db2 ecbd f9a0 1d3e
00000390: 19b9 343e a1d6 2a3e a984 133d 393b c83d
000003a0: 327d b23d aa41 3a3d 76d3 9f3d 1622 44bd
000003b0: 294b 19bd 9c1d ddba df0b 13bd 1c7b 313e
000003c0: 815b 123e 1545 c13d e07a 25be dd71 7f3d
000003d0: 1aa4 153e 3dc7 a33b 0f7b 743d b0a9 633d
000003e0: 8d93 d43c 43a7 033e 6dfe 033d ef6e 9f3d
000003f0: 3672 f13c b071 a8bc f3c9 d93c d4cf aabd

sparse.routing_experts.0.layers.0.0.bias f4 [32]
0.05300415 -0.019910483 0.12215168 0.083927505 0.033875797 -0.15602714 0.15284947 0.06620379
-0.1120888 -0.17234208 0.13375188 0.041908912 0.15038626 0.020549394 0.1511342 0.03727592
-0.07963377 -0.07198627 -0.01281319 -0.07522713 0.17140545 0.124948554 -0.14475478 0.11341723
0.082219556 -0.12876189 0.08040266 0.08974708 -0.03291184 -0.16582459 -0.1509817 -0.047452148
00000000: e11a 593d 4f1b a3bc a92a fa3d 2fe2 ab3d
00000010: 59c1 0a3d 94c5 1fbe 9284 1c3e da95 873d
00000020: d08e e5bd 717a 30be 41f6 083e aea8 2b3d
00000030: dbfe 193e 3457 a83c ecc2 1a3e a3ae 183d
00000040: 0817 a3bd 8a6d 93bd 6aee 51bc ae10 9abd
00000050: e984 2f3e 07e5 ff3d 993a 14be 4b47 e83d
00000060: ba62 a83d 28da 03be 26aa a43d 51cd b73d
00000070: 91ce 06bd eccd 29be f29a 1abe 2f5d 42bd

sparse.routing_experts.0.layers.1.0.weight f4 [32, 32]
-0.03832481 -0.05229497 -0.16931404 -0.02343105 0.110952355 -0.14740084 0.11168363 0.09597109
-0.17815924 -0.12696703 0.06653865 -0.11279357 0.1231076 0.10912828 0.09103907 0.14338331
-0.08902314 -0.075818844 -0.09511291 -0.13667578 -0.09344216 -0.0010315335 0.15782475 0.047817104
0.08868153 -0.032214776 -0.07321248 0.076245494 0.085429445 -0.021058265 0.07029732 -0.13569248
-0.028979197 -0.15574057 0.03213635 -0.066636436 -0.1339416 -0.014287416 0.07927688 0.1697445
0.07291076 -0.025551628 0.09339479 -0.08644829 -0.16807947 0.15693262 0.013836674 -0.17096621
0.14657871 0.016074039 0.01749395 0.07173036 -0.079038404 -0.011121727 -0.017729511 -0.108441435
0.07048705 -0.10349977 0.14773051 0.053106174 0.06073464 -0.023804788 -0.16909286 0.08516887
0.16751422 -0.13702641 -0.17225468 -0.0035846224 0.019798903 0.16867812 -0.05065025 0.041147955
-0.044032253 0.084972315 -0.08606827 0.0297313 0.05324791 0.13643272 0.035207447 -0.17361847
0.15355149 -0.14142646 -0.033055246 -0.041502066 0.005700005 0.12053511 0.15830578 -0.14460061
0.010624243 0.10328439 0.15016015 -0.043009568 0.03916187 -0.00553301 0.10432803 0.021597821
-0.07843048 0.08629368 -0.0027237234 0.091738194 0.0148484055 -0.13683322 -0.036396325 -0.037559558
0.08930629 0.09167818 -0.15265206 0.07581346 0.05862994 0.12405844 -0.005105153 0.16609873
0.11532465 -0.011832468 0.011515974 0.079934545 0.14976323 0.0041795718 -0.073496096 -0.029311445
-0.09785007 0.060294863 -0.06744586 -0.10575377 -0.14516245 -0.14925516 -0.13814701 -0.016487002
-0.008074502 0.15580435 -0.13748588 0.08550148 0.052421503 0.002477171 0.0006773959 -0.16891512
-0.01269348 -0.15490572 0.07175853 -0.012270882 -0.13155784 -0.0115253795 0.052372918 -0.06410688
0.0698255 -0.04454279 -0.1565076 -0.143466 0.024744602 0.16122171 -0.03969726 -0.12423166
-0.13516721 -0.14347436 0.032617755 0.091606416 -0.012071606 -0.016495572 0.027636815 0.06651607
0.047501076 -0.069894075 0.06974592 -0.09248504 -0.0704247 -0.033540852 0.14217483 0.009948529
-0.051314227 -0.0026325062 0.043767992 0.029289866 -0.13699774 -0.092039116 0.09688797 0.056085713
0.108907305 -0.012592646 -0.01976358 -0.13305956 0.09985847 -0.02450804 0.06617156 0.1273939
-0.107781656 0.012354909 -0.085735396 -0.10237015 -0.16449909 0.008645698 0.16150409 -0.01918742
0.16690332 0.083263196 -0.17424223 -0.14347571 0.13111654 0.11909615 0.072352186 0.13241486
0.11061215 -0.033148844 0.15372741 -0.16687793 -0.08539045 -0.083398685 0.11074162 -0.10001941
-0.07870653 0.08565042 -0.027076975 0.1538002 -0.10727843 -0.0700944 -0.04061301 -0.16440672
-0.111612946 0.14158331 0.043871004 -0.014331894 0.16864984 -0.01955534 0.004767349 0.13678409
-0.16368951 0.17263652 0.08566402 -0.008150935 0.14208946 -0.15629065 0.14670947 -0.14754204
-0.17937353 -0.03298961 -0.120187975 -0.046595894 0.07516202 -0.13316895 0.081646204 0.12610447
-0.08504456 0.0812798 0.14142224 -0.045312315 -0.043231223 0.05817097 0.021540152 -0.061292265
0.03725856 0.13257813 0.10083572 0.08196675 -0.09026556 0.032137014 -0.05283654 -0.13783422
00000000: 7afa 1cbd 4033 56bd a960 2dbe 79f2 bfbc
00000010: fd3a e33d 3ff0 16be 63ba e43d 7e8c c43d
00000020: 606f 36be a503 02be 6a45 883d 5100 e7bd
00000030: d61f fc3d a67e df3d b172 ba3d 13d3 123e
00000040: c451 b6bd e946 9bbd 8fca c2bd bcf4 0bbe
00000050: 9a5e bfbd 8534 87ba d09c 213e dedb 433d
00000060: a99e b53d a4f3 03bd 6df0 95bd 9926 9c3d
00000070: a2f5 ae3d 6282 acbc 0bf8 8f3d f8f2 0abe
00000080: c865 edbc 757a 1fbe 68a1 033d af78 88bd
00000090: fd27 09be c415 6abc eb5b a23d 81d1 2d3e
000000a0: 3d52 953d a651 d1bc c545 bf3d cd0b b1bd
000000b0: 061d 2cbe f2b2 203e 38b3 623c c411 2fbe
000000c0: bb18 163e b4ad 833c 794f 8f3c 5ee7 923d
000000d0: e3de a1bd e737 36bc 7b3d 91bc 8b16 debd
000000e0: 845b 903d b0f7 d3bd ab46 173e dc85 593d
000000f0: e3c4 783d 4202 c3bc ae26 2dbe 046d ae3d
00000100: d988 2b3e a750 0cbe 8863 30be fceb 6abb
00000110: 4f31 a23c f5b9 2c3e a376 4fbd c28a 283d
00000120: 2a5b 34bd f705 ae3d 9044 b0bd 0e8f f33c
00000130: 7b1a 5a3d 05b5 0b3e af35 103d 0ac9 31be
00000140: 9a3c 1d3e 19d2 10be f064 07bd 12fe 29bd
00000150: 1cc7 ba3b 1ddb f63d e91a 223e 2f12 14be
00000160: 4e11 2e3c c486 d33d 95c3 193e cd2a 30bd
00000170: 3268 203d 404e b5bb efa9 d53d eaed b03c
00000180: 29a0 a0bd beba b03d 7f80 32bb 3ce1 bb3d
00000190: ba46 733c 021e 0cbe 5014 15bd 0dd8 19bd
000001a0: 37e6 b63d c5c1 bb3d d250 1cbe 1644 9b3d
000001b0: f325 703d 5a12 fe3d 2149 a7bb c915 2a3e
000001c0: 552f ec3d f8dc 41bc 7fad 3c3c b9b4 a33d
000001d0: 885b 193e caf4 883b 1f85 96bd 8e1e f0bc
000001e0: 9e65 c8bd bff7 763d 0e21 8abd 6f95 d8bd
000001f0: 77a5 14be 58d6 18be 6976 0dbe c00f 87bc
00000200: eb4a 04bc 2d8b 1f3e 19c9 0cbe 661b af3d
00000210: eeb7 563d 0858 223b 4593 313a 16f8 2cbe
00000220: 50f8 4fbc 9b9f 1ebe 23f6 923d cf0b 49bc
00000230: 19b7 06be f2d4 3cbc fc84 563d 784a 83bd
00000240: ac00 8f3d 8072 36bd 8743 20be c0e8 12be
00000250: 31b5 ca3c 4e17 253e 9899 22bd 2b6d febd
00000260: 4669 0abe f1ea 12be 329a 053d 259c bb3d
00000270: fcc7 45bc b921 87bc 9a66 e23c 9439 883d
00000280: 7d90 423d a024 8fbd f3d6 8e3d cc68 bdbd
00000290: d33a 90bd 2262 09bd 4796 113e 28ff 223c
000002a0: de2e 52bd 2086 2cbb 1146 333d 4df1 ef3c
000002b0: 2349 0cbe 017f bcbd 336d c63d 22ba 653d
000002c0: cb0a df3d 6351 4ebc 3be7 a1bc c440 08be
000002d0: 9982 cc3d 16c5 c8bc f484 873d 8c73 023e
000002e0: a1bc dcbd 3f6c 4a3c 0a96 afbd 71a7 d1bd
000002f0: 7372 28be b0a6 0d3c 5461 253e f02e 9dbc
00000300: b4e8 2a3e e585 aa3d 8e6c 32be 4ceb 12be
00000310: 6a43 063e afe8 f33d 622d 943d c397 073e
00000320: 9f88 e23d 15c7 07bd b86a 1d3e 0ce2 2abe
00000330: 30e1 aebd eecc aabd 81cc e23d fad6 ccbd
00000340: e430 a1bd 7d69 af3d 88d0 ddbc cd7d 1d3e
00000350: cbb4 dbbd a78d 8fbd d459 26bd 3c5a 28be
00000360: 5495 e4bd 37fb 103e 15b2 333d 52d0 6abc
00000370: 8bb2 2c3e 8532 a0bc 6c37 9c3b 2111 0c3e
00000380: 399e 27be a1c7 303e 9e70 af3d 808b 05bc
00000390: e67f 113e a80a 20be 023b 163e 4315 17be
000003a0: b2ad 37be 1d20 07bd 1d25 f6bd 56db 3ebd
000003b0: 8cee 993d 715d 08be 2036 a73d 8821 013e
000003c0: d82b aebd 0676 a63d fed0 103e 6899 39bd
000003d0: 3913 31bd af44 6e3d f974 b03c 990d 7bbd
000003e0: 6f9c 183d 90c2 073e f582 ce3d 2fde a73d
000003f0: 26dd b8bd 1aa2 033d 216b 58bd 6a24 0dbe

sparse.routing_experts.0.layers.1.0.bias f4 [32]
-0.05538423 0.095258415 0.14026874 -0.15551975 0.1515151 -0.15353152 -0.11194765 -0.012140162
-0.030918706 0.061595835 -0.112541996 -0.046573326 -0.13760896 -0.009426817 0.08658314 0.06547223
-0.02403101 -0.021622624 0.023149746 0.11782522 -0.13542019 -0.07090538 0.028788855 0.034452695
0.16207646 -0.08870567 -0.10218092 -0.110778034 0.12095298 -0.123554505 0.1075297 -0.09302953
00000000: 93da 62bd d816 c33d 9ca2 0f3e 9240 1fbe
00000010: c626 1b3e 5e37 1dbe cf44 e5bd 88e7 46bc
00000020: 3a49 fdbc ea4b 7c3d 6b7c e6bd acc3 3ebd
00000030: 5de9 0cbe f072 1abc 8052 b13d 4e16 863d
00000040: aedc c4bc ee21 b1bc 89a4 bd3c 594e f13d
00000050: 97ab 0abe d736 91bd 9bd6 eb3c 451e 0d3d
00000060: 5ff7 253e 51ab b5bd 3b44 d1bd 98df e2bd
00000070: 32b6 f73d 250a fdbd 8838 dc3d 4486 bebd

sparse.routing_experts.0.layers.2.0.weight f4 [32, 32]
-0.011857811 -0.14348035 -0.1707941 -0.15694164 0.052626662 0.08170963 0.07913059 0.079055
-0.010901221 0.053087 -0.05596503 0.110566385 -0.00504393 0.08347715 0.15655862 -0.03724254
-0.081875764 -0.037212674 0.07308372 -0.008253338 0.14097822 -0.010595012 -0.0177107 -0.1667066
-0.13894838 0.16797374 -0.0420403 -0.15414791 -0.13971366 0.15176444 0.15832192 -0.17261666
-0.078123406 -0.030172277 -0.06540412 -0.07660027 -0.07494062 0.16510275 0.062142342 -0.09259832
0.15022032 -0.14380515 0.09773187 -0.055820737 -0.14677607 0.11591743 -0.09155848 0.13765281
0.019638529 -0.016049901 0.12896219 0.13441102 -0.1414183 -0.031821966 0.08171265 -0.14615169
-0.05880139 0.09690333 0.02988444 -0.042568106 0.088996775 0.09034616 0.057687066 0.0006211342
-0.09194704 0.06303676 0.04061787 -0.037523568 -0.0147317 -0.07955773 0.0781825 0.0029713677
-0.10744797 0.07988577 -0.018819066 0.036692057 -0.15280874 -0.120772585 -0.0921087 0.0089397635
-0.15488361 0.093932256 0.06583479 -0.06335738 -0.07911511 0.0040249126 -0.07317523 0.14233248
-0.0385369 0.037768517 -0.13003609 -0.03752857 0.06901128 -0.10631046 0.15537053 -0.14346933
0.10837417 0.15779772 -0.044840317 0.104325406 -0.16167055 0.025244715 -0.05516796 -0.14256905
0.10642707 0.11165594 -0.14845641 0.16621388 -0.1640104 -0.1372288 0.09915001 -0.14027417
0.11977351 -0.0047434093 -0.0016094914 0.09162122 0.1182159 -0.013259827 -0.13261868 0.011226309
-0.16497153 0.08342243 -0.14337194 0.11492227 0.001089154 -0.009668655 -0.116126105 0.14696722
-0.11385487 0.16158812 -0.078504816 -0.10921705 0.07237931 -0.12781638 -0.14159755 0.013813485
-0.040550265 -0.17979427 0.13728674 0.17188361 -0.055136446 0.057517473 -0.0941285 0.028943384
0.075955965 0.0027252415 0.02660901 -0.10685825 -0.1786213 0.056702413 -0.07356854 -0.049853995
0.014921962 0.15983902 0.14185049 0.07856786 0.1081409 -0.011192766 0.026927749 -0.1182002
-0.17265336 0.17071141 0.12859592 0.043041725 0.035413027 0.034454167 -0.0955045 0.004692248
-0.18130718 -0.09310784 -0.11403242 0.12913504 0.16684075 -0.12555505 0.12990771 0.119208954
-0.15341571 -0.02398618 -0.03125271 0.0049747084 -0.10264941 -0.17349592 -0.15517408 0.16656467
0.124999486 -0.053612873 0.14704044 -0.15658769 0.009683216 0.14325951 -0.08609322 -0.08052834
-0.17815073 -0.02885556 0.09746716 0.04881137 0.011242019 -0.08548757 0.04755258 0.14110433
0.09607892 0.024675922 -0.10193732 -0.050708745 0.014658852 0.15951012 0.13815644 -0.07270353
0.122826144 0.0617284 0.057189528 0.10779781 0.10432305 0.042240907 0.11052794 0.04881418
0.020037634 -0.027381003 0.071058355 -0.0805535 0.070481956 0.13515699 -0.08486766 -0.065971814
0.121034086 -0.1619282 -0.047677066 0.12739776 0.054360982 0.07971849 -0.14676425 -0.04890739
-0.08894074 0.09062914 0.08018658 -0.11725836 -0.078377284 0.018992167 -0.015387767 0.05068951
0.05269779 -0.09534063 0.088326305 -0.107753165 0.077720046 -0.036319025 0.14673553 0.14603762
-0.02066318 -0.17184006 0.10891002 0.17528884 0.009127395 -0.01908241 0.11938858 -0.071379334
00000000: 4447 42bc 83ec 12be a6e4 2ebe 4fb5 20be
00000010: 0e8f 573d 6157 a73d 380f a23d 96e7 a13d
00000020: 099b 32bc c171 593d 963b 65bd a170 e23d
00000030: 8d47 a5bb 11f6 aa3d e750 203e a28b 18bd
00000040: 7bae a7bd 516c 18bd ebac 953d 0239 07bc
00000050: 985c 103e b496 2dbc 0816 91bc 23b5 2abe
00000060: 7c48 0ebe 4f01 2c3e 7332 2cbd f3d8 1dbe
00000070: 1911 0fbe 2368 1b3e 241f 223e 6cc2 30be
00000080: 2aff 9fbd da2b f7bc 98f2 85bd 9ae0 9cbd
00000090: 787a 99bd b210 293e f888 7e3d 30a4 bdbd
000000a0: 5bd3 193e a841 13be a627 c83d 49a4 64bd
000000b0: 774c 16be 1e66 ed3d 0383 bbbd dcf4 0c3e
000000c0: fbe0 a03c 157b 83bc aa0e 043e 0ba3 093e
000000d0: f5cf 10be c057 02bd f658 a73d caa8 15be
000000e0: bad9 70bd 4175 c63d 37d0 f43c e55b 2ebd
000000f0: f143 b63d 6807 b93d 4649 6c3d 9cd3 223a
00000100: bb4e bcbd 6b19 813d ec5e 263d 50b2 19bd
00000110: 3a5d 71bc 2aef a2bd 261e a03d 47bb 423b
00000120: ae0d dcbd 279b a33d 712a 9abc 694a 163d
00000130: e579 1cbe 9e57 f7bd 7ca3 bcbd 1678 123c
00000140: cf99 1ebe 8e5f c03d 64d4 863d 84c1 81bd
00000150: 1a07 a2bd 6ae3 833b e5dc 95bd 9bbf 113e
00000160: ded8 1dbd 29b3 1a3d 2e28 05be 8fb7 19bd
00000170: c955 8d3d 4cb9 d9bd 7419 1f3e a0e9 12be
00000180: 47f3 dd3d ba95 213e 7baa 37bd 8fa8 d53d
00000190: f78c 25be 01ce ce3c ccf7 61bd 9ffd 11be
000001a0: 70f6 d93d dfab e43d f504 18be f933 2a3e
000001b0: 58f2 27be b585 0cbe 290f cb3d 08a4 0fbe
000001c0: d04b f53d 9a6e 9bbb 92f5 d2ba e8a3 bb3d
000001d0: 2e1b f23d bf3f 59bc 31cd 07be 8eee 373c
000001e0: 4cee 28be 61d9 aa3d 18d0 12be 5e5c eb3d
000001f0: f2c1 8e3a 4769 1ebc 86d3 edbd 937e 163e
00000200: be2c e9bd 5b77 253e 22c7 a0bd 30ad dfbd
00000210: 9b3b 943d 4ce2 02be f3fe 10be f551 623c
00000220: 0918 26bd fd1b 38be e594 0c3e 4202 303e
00000230: c1d6 61bd 7197 6b3d 71c6 c0bd ad1a ed3c
00000240: cd8e 9b3d f799 323b 23fb d93c 80d8 dabd
00000250: 81e8 36be ca40 683d 1aab 96bd b433 4cbd
00000260: 3f7b 743c d7ac 233e 4141 113e 30e8 a03d
00000270: fa78 dd3d dd61 37bc 9597 dc3c f212 f2bd
00000280: 0bcc 30be f9ce 2e3e a6ae 033e 854c 303d
00000290: 400d 113d d01f 0d3d dd97 c3bd 6ec1 993b
000002a0: 97a8 39be 53af bebd d489 e9bd fa3b 043e
000002b0: 4dd8 2a3e 8191 00be 8706 053e d323 f43d
000002c0: 0219 1dbe aa7e c4bc d702 00bd e102 a33b
000002d0: db39 d2bd eaa8 31be f4e5 1ebe ee8f 2a3e
000002e0: bbff ff3d 2c99 5bbd c591 163e 8658 20be
000002f0: 5aa6 1e3c 9fb2 123e a451 b0bd 0bec a4bd
00000300: 256d 36be 7f62 ecbc dd9c c73d 6eee 473d
00000310: 7230 383c 1b14 afbd 7ec6 423d a77d 103e
00000320: 06c5 c43d 2925 ca3c 83c4 d0bd f9b3 4fbd
00000330: ae2b 703c 9f56 233e e278 0d3e 97e5 94bd
00000340: 468c fb3d ebd6 7c3d 913f 6a3d 19c5 dc3d
00000350: 53a7 d53d cd04 2d3d 795c e23d 61f1 473d
00000360: f725 a43c 204e e0bc 0b87 913d 3cf9 a4bd
00000370: d858 903d 9866 0a3e 19cf adbd 3b1c 87bd
00000380: b8e0 f73d 82d0 25be 0749 43bd 8f74 023e
00000390: 9fa9 5e3d 7343 a33d 5e49 16be 1e53 48bd
000003a0: 9026 b6bd c59b b93d dd38 a43d 2725 f0bd
000003b0: 4584 a0bd 7695 9b3c f91c 7cbc ce9f 4f3d
000003c0: a3d9 573d f341 c3bd 6ce4 b43d b1ad dcbd
000003d0: b02b 9f3d 42c3 14bd d741 163e e38a 153e
000003e0: d445 a9bc d7f6 2fbe 370c df3d eb7e 333e
000003f0: 128b 153c b752 9cbc 0082 f43d 542f 92bd

sparse.routing_experts.0.layers.2.0.bias f4 [32]
0.0915641 0.15909216 -0.024755081 -0.1446936 -0.14438435 -0.055825442 -0.1576048 0.11416564
-0.037648927 -0.08456765 -0.08801874 0.104170434 -0.091324374 0.055771545 0.013511042 -0.15471785
-0.10405141 0.029075703 -0.015389848 0.060719017 0.032277502 0.0540373 0.0009575575 0.09506239
-0.12997532 0.16212536 0.035740897 0.026233805 -0.12999266 0.09817682 -0.16542497 -0.06007318
00000000: f585 bb3d 0ee9 223e 2bcb cabc 8f2a 14be
00000010: 7ed9 13be 38a9 64bd 2763 21be adcf e93d
00000020: c335 1abd ce31 adbd 2b43 b4bd 4f57 d53d
00000030: 4608 bbbd b470 643d 6b5d 5d3c 5b6e 1ebe
00000040: e818 d5bd 2b30 ee3c b325 7cbc 81b4 783d
00000050: 6a35 043d 3756 5d3d 9904 7b3a 12b0 c23d
00000060: 4018 05be 3104 263e 0c65 123d 47e8 d63c
00000070: cc1c 05be ee10 c93d 2a65 29be 4b0f 76bd

sparse.routing_experts.0.layers.3.0.weight f4 [32, 32]
-0.027103206 -0.09639809 -0.113759585 -0.168008 -0.12999591 0.039601196 0.0410775 0.048353806
-0.019632941 0.08360149 0.13404863 0.13656858 0.17123006 0.00041384398 -0.103088796 0.117466666
0.08042666 0.013779211 0.16967003 0.09290068 -0.030460425 -0.08477134 0.16992503 0.12038031
-0.07310387 -0.011386137 -0.03866149 0.067035705 0.06555684 0.12909146 0.039245196 0.01681696
-0.10681541 0.099947676 -0.14567484 -0.026951823 0.1457694 0.13874516 -0.027916925 0.05418951
-0.15576749 -0.042862613 0.04410994 0.11866649 -0.15611322 -0.011216391 0.04250093 0.13334222
0.0067969924 0.01911665 -0.07612598 -0.046894353 -0.055830196 0.013552746 -0.14126275 0.07779578
0.020752376 -0.1451196 0.0056439796 0.17704725 0.027798275 -0.14079198 0.17829342 0.012085153
-0.098601766 0.11330919 0.15386853 0.087887906 0.1369618 0.05115924 -0.11468507 -0.097389646
-0.023887234 -0.08966122 -0.010684638 -0.100770816 -0.08449477 0.09533359 -0.17405999 0.04114211
0.06583628 -0.06358309 -0.026606336 0.051841993 -0.12893188 -0.048775278 0.11072874 0.10423815
0.03806707 -0.14676686 -0.08177891 0.03725606 0.0637612 -0.100066826 0.08202464 0.119085066
0.09558033 -0.15869598 0.070283994 0.116896 0.09369892 0.1604382 0.15531147 0.12853174
0.07928128 0.025629435 0.02451839 0.07836113 -0.11736538 0.0038502803 0.17220853 0.1197442
-0.015732616 -0.07672664 0.07741023 -0.08833271 -0.028466031 0.1486119 -0.14655189 0.060031496
0.15454541 0.13413532 -0.027814878 -0.11096879 -0.058556333 -0.079175636 0.046699785 -0.15937525
-0.1601129 0.008493572 0.023239853 0.05449205 -0.005968089 -0.028526438 0.14928618 0.013956044
0.08461093 0.094520405 0.08146482 0.13755064 -0.030600077 -0.022550134 -0.14098519 0.06714374
-0.011547561 -0.17993891 -0.16885231 -0.049818967 0.13506666 -0.115808204 0.15149367 -0.01556852
0.030059557 0.113533184 -0.041974485 -0.0045164283 -0.0681781 -0.04060306 0.13891584 -0.11911244
0.11270132 -0.06435408 0.019768037 0.1269046 0.09907633 0.15072106 -0.12118428 -0.15375362
0.11119119 -0.17364481 -0.10160904 0.04742677 -0.09844076 -0.07927775 -0.14968362 0.0029736534
-0.16242576 0.15591562 0.16771494 0.10284064 0.1273669 -0.12440615 -0.16138732 0.048334718
0.019525398 0.09797145 0.089444295 0.004226151 0.063391194 0.07897234 0.09622769 0.052345112
0.035955224 -0.043151908 0.085697606 0.07704917 0.085138254 0.14503288 -0.06624778 -0.058230273
-0.17999971 -0.055210557 0.1262511 -0.08057393 -0.05494972 -0.09436913 -0.059283257 -0.1633666
-0.062786534 0.013554586 0.03103239 -0.06020742 0.026630022 -0.010391406 -0.16004322 0.015282755
-0.17525065 0.049243305 -0.13016269 -0.062788054 -0.16451629 -0.0048007765 -0.075012706 0.13265876
0.06404423 0.023023725 0.065910526 -0.13869186 -0.05828815 -0.07503836 0.15271796 0.002798464
-0.038589045 -0.049072083 0.12009964 0.026485967 -0.07782687 0.13824166 -0.10038349 -0.16685186
-0.06087193 -0.15611972 0.17260942 0.02871997 0.082930304 -0.055841774 -0.14792109 0.0828418
0.09190674 0.10204328 -0.15399705 0.024447791 0.062101793 -0.010307158 0.13566314 -0.1584575
00000000: 8b07 debc 5d6c c5bd c9fa e8bd 4a0a 2cbe
00000010: a61d 05be dd34 223d e140 283d a40e 463d
00000020: 43d5 a0bc 4237 ab3d 0b44 093e a2d8 0b3e
00000030: ef56 2f3e 33f9 d839 3820 d3bd 5d92 f03d
00000040: bcb6 a43d 33c2 613c fbbd 2d3e b642 be3d
00000050: 2488 f9bc 999c adbd d400 2e3e f489 f63d
00000060: 7bb7 95bd ec8c 3abc 835b 1ebd 044a 893d
00000070: aa42 863d 8d30 043e 92bf 203d b9c3 893c
00000080: 0ac2 dabd 5eb1 cc3d c92b 15be 12ca dcbc
00000090: 9344 153e 3613 0e3e 09b2 e4bc d2f5 5d3d
000000a0: 8381 1fbe b590 2fbd a0ac 343d 6b07 f33d
000000b0: 25dc 1fbe f4c4 37bc 7515 2e3d dd8a 083e
000000c0: 4eb9 de3b 859a 9c3c f0e7 9bbd 4b14 40bd
000000d0: 34ae 64bd 560c 5e3c 2fa7 10be 6553 9f3d
000000e0: e300 aa3c 3c9a 14be 22f1 b83b e04b 353e
000000f0: 35b9 e33c c62b 10be 8d92 363e ce00 463c
00000100: b9ef c9bd a60e e83d b68f 1d3e 93fe b33d
00000110: b73f 0c3e 5a8c 513d 02e0 eabd 3974 c7bd
00000120: 29af c3bc 4da0 b7bd 9f0e 2fbc ee60 cebd
00000130: 980b adbd 423e c33d c83c 32be a184 283d
00000140: 2cd5 863d da37 82bd 88f5 d9bc 4558 543d
00000150: b806 04be 96c8 47bd c0c5 e23d d07a d53d
00000160: 37ec 1b3d 0d4a 16be b37b a7bd cf99 183d
00000170: 3b95 823d d6ef ccbd 89fc a73d dfe2 f33d
00000180: 9fbf c33d 3381 22be 0ef1 8f3d 2c67 ef3d
00000190: 38e5 bf3d e949 243e f809 1f3e d39d 033e
000001a0: 395e a23d d2f4 d13c cada c83c cd7b a03d
000001b0: 435d f0bd fc54 7c3b 6f57 303e 723c f53d
000001c0: b0e1 80bc db22 9dbd 4189 9e3d c8e7 b4bd
000001d0: 9831 e9bc b82d 183e b311 16be 96e3 753d
000001e0: 2741 1e3e c55a 093e 07dc e3bc 9b43 e3bd
000001f0: c4d8 6fbd d626 a2bd 4648 3f3d 4433 23be
00000200: a3f4 23be 9f28 0b3c 8161 be3c 0e33 5f3d
00000210: f68f c3bb 47b0 e9bc 7ade 183e e4a7 643c
00000220: 7f48 ad3d ea93 c13d 07d7 a63d 13da 0c3e
00000230: 03ad fabc 0fbb b8bc 6c5e 10be a882 893d
00000240: fb31 3dbc e841 38be 9fe7 2cbe f90e 4cbd
00000250: ea4e 0a3e da2c edbd 2821 1b3e 1b13 7fbc
00000260: 763f f63c 1684 e83d 70ed 2bbd 8cfe 93bb
00000270: f6a0 8bbd 654f 26bd f43f 0e3e 39f1 f3bd
00000280: f3cf e63d 12cc 83bd 94f0 a13c 48f3 013e
00000290: 88e8 ca3d 9f56 1a3e 772f f8bd 9771 1dbe
000002a0: 35b8 e33d f2cf 31be 6618 d0bd 9342 423d
000002b0: 4f9b c9bd 5f5c a2bd aa46 19be a0e1 423b
000002c0: f052 26be 58a8 1f3e 77bd 2b3e 1d9e d23d
000002d0: 786c 023e a7c8 febd b842 25be a0fa 453d
000002e0: baf3 9f3c 41a5 c83d 922e b73d 867b 8a3b
000002f0: 3ed3 813d 40bc a13d 0613 c53d d467 563d
00000300: c945 133d 0ec0 30bd 3a82 af3d f5cb 9d3d
00000310: f75c ae3d 8083 143e ebac 87bd de82 6ebd
00000320: d851 38be 7724 62bd f847 013e f203 a5bd
00000330: f512 61bd 9a44 c1bd 00d3 72bd 9349 27be
00000340: 3a96 80bd 0e14 5e3c a437 fe3c 0e9c 76bd
00000350: 3427 da3c b740 2abc 5fe2 23be 8564 7a3c
00000360: e874 33be 59b3 493d 5e49 05be 0697 80bd
00000370: f576 28be d54f 9dbb 43a0 99bd b3d7 073e
00000380: 9f29 833d 409c bc3c 19fc 863d 3d05 0ebe
00000390: 8ebf 6ebd b6ad 99bd 1962 1c3e 6f66 373b
000003a0: 8c0f 1ebd cfff 48bd cdf6 f53d 19f9 d83c
000003b0: b263 9fbd 398f 0d3e dc95 cdbd 37db 2abe
000003c0: d854 79bd d9dd 1fbe 86c0 303e 2446 eb3c
000003d0: 5dd7 a93d 58ba 64bd a078 17be f6a8 a93d
000003e0: 9a39 bc3d 11fc d03d 67b1 1dbe bc46 c83c
000003f0: 735e 7e3d 5bdf 28bc 47eb 0a3e af42 22be

sparse.routing_experts.0.layers.3.0.bias f4 [32]
0.06764745 0.113558054 0.038580287 -0.15466988 -0.12482792 0.08490102 0.12186872 -0.06321149
-0.064786136 -0.03254585 -0.06235687 0.098220706 0.117297396 0.16532598 -0.14409189 0.096928574
-0.03264066 0.08054608 0.019999193 0.13452633 -0.06788101 0.16711226 0.061709356 0.03478721
0.08018454 0.16963792 -0.011363519 0.011638392 0.0954352 0.12473803 -0.08084067 -0.16310968
00000000: bf8a 8a3d 2091 e83d 5d06 1e3d c861 1ebe
00000010: c8a5 ffbd 96e0 ad3d 4f96 f93d 0775 81bd
00000020: 98ae 84bd cc4e 05bd eb69 7fbd f027 c93d
00000030: 9e39 f03d 374b 293e d38c 13be 7d82 c63d
00000040: 36b2 05bd 58f5 a43d 59d5 a33c 45c1 093e
00000050: 3305 8bbd 7a1f 2b3e f3c2 7c3d 097d 0e3d
00000060: cb37 a43d 90b5 2d3e 0e2e 3abc f4ae 3e3c
00000070: 8873 c33d a776 ff3d cb8f a5bd 3906 27be

sparse.routing_experts.1.layers.0.0.weight f4 [32, 32]
0.08602069 -0.030913234 -0.16637148 0.020597592 0.17172255 -0.17062286 0.14822571 0.13828738
-0.15663682 -0.07866861 -0.07781123 -0.049309522 0.006311342 0.02761826 0.15216608 0.13609116
0.16434182 -0.04233177 0.049881756 0.089510456 -0.1032201 0.1415763 0.09442119 -0.17197615
0.025637299 0.105099455 0.11049493 0.003653124 0.010962591 0.009936497 0.10651253 -0.13254938
-0.092329204 0.1699787 0.102240846 0.0005232692 -0.12336281 0.16201486 0.14469813 -0.11169414
-0.06346417 -0.0071244836 0.0883425 -0.07987961 0.11413543 -0.12837961 -0.08993136 -0.07092482
0.07269539 -0.054532036 -0.08660241 -0.05202017 -0.09849103 0.092228755 0.07707332 -0.11511192
-0.1749059 0.13232021 -0.08921868 -0.11496851 0.028273985 0.07282752 0.14902629 -0.07139598
0.047289044 -0.1641818 -0.12145333 0.032403186 -0.12543549 -0.0073877275 -0.14360692 -0.07525619
0.00308989 -0.10108999 -0.13695124 -0.16063038 0.14629932 -0.018079191 0.13170595 -0.09434816
-0.15027183 -0.011881456 0.07459359 0.014885724 0.16962348 0.036371186 -0.117889434 0.09955622
-0.17377803 -0.07532885 -0.07108624 -0.029088467 -0.14828286 0.11721243 0.13356863 -0.015298426
0.074877515 0.064589426 0.104340985 -0.027346522 0.12198402 0.11250736 0.040975228 -0.06594536
0.13811667 -0.0056225806 -0.11824056 0.12165047 0.15986826 -0.14840221 -0.030595213 -0.014952138
-0.048141032 0.090313 -0.101979144 0.04924141 0.15441336 -0.010130897 -0.11520211 0.113991275
0.008455873 -0.15149564 0.14335854 0.13287662 -0.14351103 -0.09091621 -0.0019952059 -0.055583432
0.005315602 0.16044189 0.03947349 -0.075059555 -0.034145504 0.057555214 0.07766934 0.027137786
0.16216703 -0.029730722 -0.047405273 0.11719774 0.16986398 0.092310145 -0.03427416 -0.12284603
0.16031532 0.16945966 0.15865661 0.026464745 -0.00041912496 0.10186358 -0.01417093 0.01776281
-0.0049282312 0.06592934 -0.04842116 0.05453749 -0.07693252 0.079038665 -0.06165629 0.087066635
0.14842884 -0.07852107 0.0758443 0.14622478 -0.13999785 0.0893469 0.061647832 0.014219299
-0.04783596 -0.121166795 -0.015308261 -0.12258543 -0.14256984 0.05009815 -0.030732617 -0.14204141
0.06160967 0.0002220124 0.069803044 0.036748976 -0.07957285 -0.020429224 0.06653541 -0.14663032
-0.08447868 0.106385514 -0.09967297 0.14657117 0.16733427 -0.037680015 -0.021959752 -0.0057245046
-0.023412213 -0.0059710294 -0.071174815 -0.16231064 0.118664846 -0.03812419 0.039859667 -0.121036686
0.09978671 -0.030947268 -0.0112948865 -0.041348234 0.16461219 0.10345356 0.16962497 0.16219537
0.073451445 -0.15234484 -0.15154749 -0.026035503 0.13390069 -0.085204445 -0.16197276 -0.10403688
0.13286044 -0.09184559 0.16589509 -0.14520977 -0.042045206 -0.16171823 0.12739654 -0.10212748
0.15430991 -0.115620814 0.12918757 0.16341765 0.08811171 0.1668173 0.119556054 0.08941151
-0.11355267 -0.025017336 -0.12019181 0.13502042 0.14286976 -0.1745376 -0.002862528 -0.1729157
0.07040903 -0.1334163 -0.088797085 -0.038650155 -0.06498509 -0.14147788 -0.023263559 0.070467174
0.039035067 0.030081645 0.09301935 0.04618764 0.102126256 0.13349773 -0.10855429 -0.08720773
00000000: 9e2b b03d c03d fdbc 495d 2abe 48bc a83c
00000010: 09d8 2f3e c2b7 2ebe 7bc8 173e 359b 0d3e
00000020: 6765 20be 021d a1bd 7f5b 9fbd c8f8 49bd
00000030: 60cf ce3b b03f e23c 6dd1 1b3e 7b5b 0b3e
00000040: 3949 283e 1464 2dbd d050 4c3d 4251 b73d
00000050: 0f65 d3bd 61f9 103e e65f c13d 841a 30be
00000060: 5005 d23c 623e d73d 2a4b e23d 4069 6f3b
00000070: 709c 333c b0cc 223c 3e23 da3d 06bb 07be
00000080: 1817 bdbd e50e 2e3e a663 d13d 002c 093a
00000090: a4a5 fcbd 39e7 253e bf2b 143e e6bf e4bd
000000a0: 81f9 81bd 8074 e9bb eaec b43d ec97 a3bd
000000b0: d6bf e93d f275 03be ef2d b8bd 0841 91bd
000000c0: 52e1 943d fc5c 5fbd 9b5c b1bd 1a13 55bd
000000d0: aab5 c9bd 6ee2 bc3d 9ed8 9d3d ccbf ebbd
000000e0: 881a 33be f37e 073e 49b8 b6bd 9c74 ebbd
000000f0: d89e e73c 9826 953d 599a 183e 0e38 92bd
00000100: 28b2 413d 461f 28be 86bc f8bd 34b9 043d
00000110: 2972 00be c014 f2bb b10d 13be eb1f 9abd
00000120: c07f 4a3b 4508 cfbd f23c 0cbe 4a7c 24be
00000130: 7dcf 153e d01a 94bc eddd 063e 9c39 c1bd
00000140: dce0 19be 70aa 42bc 86c4 983d 40e3 733c
00000150: c7b1 2d3e f4f9 143d 0470 f1bd 22e4 cb3d
00000160: def2 31be 0346 9abd aa95 91bd f04a eebc
00000170: 76d7 17be 120d f03d 37c6 083e 40a6 7abc
00000180: 6259 993d 7647 843d bab0 d53d d005 e0bc
00000190: c2d2 f93d 426a e63d a4d5 273d 5c0e 87bd
000001a0: 756e 0d3e a03d b8bb 1b28 f2bd e223 f93d
000001b0: 81b4 233e c0f6 17be d0a2 fabc d0f9 74bc
000001c0: 882f 45bd 06f6 b83d 71da d0bd 5cb1 493d
000001d0: 891e 1e3e 10fc 25bc 15ef ebbd 4274 e93d
000001e0: 808a 0a3c ac21 1bbe 95cc 123e cf10 083e
000001f0: 8ef4 12be 4732 babd 00c2 02bb 74ab 63bd
00000200: 802e ae3b e14a 243e f4ae 213d d3b8 99bd
00000210: 28dc 0bbd 04bf 6b3d 1a11 9f3d 1050 de3c
00000220: 1d0f 263e d88d f3bc 082c 42bd 5e05 f03d
00000230: d3f0 2d3e 1a0d bd3d 1063 0cbd b396 fbbd
00000240: b329 243e d586 2d3e e176 223e 98cc d83c
00000250: 00be dbb9 da9d d03d 302d 68bc 5083 913c
00000260: 007d a1bb f605 873d 4455 46bd b462 5f3d
00000270: cc8e 9dbd 06df a13d 4e8b 7cbd fe4f b23d
00000280: bbfd 173e a8cf a0bd 4254 9b3d f3bb 153e
00000290: 995b 0fbe 82fb b63d 7082 7c3d 10f8 683c
000002a0: a4ef 43bd 4c26 f8bd 80cf 7abc 120e fbbd
000002b0: d4fd 11be b833 4d3d f8c2 fbbc 4e73 11be
000002c0: 6c5a 7c3d 00cc 6839 e6f4 8e3d 1886 163d
000002d0: 17f7 a2bd 305b a7bc b843 883d 4226 16be
000002e0: 2803 adbd a6e0 d93d 5821 ccbd c116 163e
000002f0: ad59 2b3e 5c56 1abd f0e4 b3bc a094 bbbb
00000300: f8ca bfbc a0a8 c3bb 1ac4 91bd c334 26be
00000310: 8e06 f33d 1c28 1cbd e443 233d 15e2 f7bd
00000320: fa5c cc3d 2085 fdbc 300e 39bc c45c 29bd
00000330: 1990 283e 76df d33d 2bb2 2d3e 8b16 263e
00000340: b66d 963d 4900 1cbe 442f 1bbe 6848 d5bc
00000350: 431d 093e ab7f aebd 30dc 25be 4a11 d5bd
00000360: 910c 083e 8a19 bcbd 67e0 293e dfb1 14be
00000370: 9837 2cbd 7799 25be 3d74 023e 3628 d1bd
00000380: 6b03 1e3e 9bca ecbd bf49 043e f556 273e
00000390: ea73 b43d 27d2 2a3e ced9 f43d 621d b73d
000003a0: 4d8e e8bd 28f1 ccbc 2027 f6bd cb42 0a3e
000003b0: 734c 123e fcb9 32be 4099 3bbb d010 31be
000003c0: 9c32 903d 489e 08be 3fdb b5bd a04f 1ebd
000003d0: e716 85bd 94df 10be 3893 bebc 1851 903d
000003e0: 3ce3 1f3d c86d f63c ee80 be3d 402f 3d3d
000003f0: 9227 d13d a1b3 083e b651 debd f799 b2bd

sparse.routing_experts.1.layers.0.0.bias f4 [32]
-0.0016517788 -0.15906797 -8.4504485e-05 -0.123614006 -0.030080482 0.0061406493 0.12012534 0.08396466
0.048335254 0.015690118 -0.04492989 -0.036681056 0.1531132 0.13063173 0.095529094 -0.03813052
-0.073007256 -0.037296295 -0.16462411 0.07213859 -0.12954554 0.048810035 0.08822562 0.1712798
0.07294528 0.08283265 0.03198208 0.005785167 0.022845134 -0.09994948 0.031806856 -0.030427039
00000000: 8080 d8ba b7e2 22be 0038 b1b8 5729 fdbd
00000010: 586b f6bc 8037 c93b 4604 f63d aaf5 ab3d
00000020: 30fb 453d 9088 803c 6808 38bd e03e 16bd
00000030: b5c9 1c3e 53c4 053e c2a4 c33d c02e 1cbd
00000040: d484 95bd 00c4 18bd 3993 28be 66bd 933d
00000050: 96a7 04be 08ed 473d a2af b43d f963 2f3e
00000060: 5664 953d 2aa4 a93d a4ff 023d 8091 bd3b
00000070: b825 bb3c 50b2 ccbd e847 023d 2042 f9bc
